autogluon_models/models/NeuralNetFastAI_BAG_L2/S1F3/model-internals.pkl (torch, 832401 bytes, 17 tensors)

weight f4 [506, 52]
00000000: 8e4d b43b 640a e4ba eb39 05bc b057 8dbc
00000010: bfca 5a3c 2ffa 5a3b c0d1 733c c1ae 803c
00000020: 5913 80bb 8d49 4dbc deab d3ba 2ed7 833c
00000030: 2547 06bc 6b56 253c 48cc 93ba be65 49bb
00000040: 8739 feba 9957 15bc 68c4 5c3b 274a 35ba
00000050: a695 dd3b 4eb8 17bc 1fed 4ebb 5390 fb3b
00000060: 3826 4cbc 5627 fc3b 34eb aa3b 9f60 2e3c
00000070: 6c00 6abb 6b83 87bb 324c 323b f17c d63b
00000080: 0409 96bb 4758 423b d4c0 973b 92e1 013c
00000090: c5d0 6abc 18fc 813b 8f21 b1b8 48d7 093c
000000a0: e6f8 153c 4a3c 023c 7b45 c93a 3acd 24bc
000000b0: 0db7 1bbc 6eb3 9f3b f82f 8abc 6a08 8e3b
000000c0: 51cd d2ba 59cf 4e3b a6c4 87bc 3a5f 5a3b
000000d0: 5031 1bbc a3c8 05bb 2906 44bc 1630 aaba
000000e0: ce1e a4ba e392 ddb9 bfde dbb8 423e f6bb
000000f0: d945 79bc 477c 2cbc 1867 6a3b 9528 1c3c
00000100: 2eb8 7a3c 0ade 7f3b 7791 ea3a 7ddd 32bc
00000110: a6af 14bc 58d3 7c3c 4889 26bc d3ad 0c3b
00000120: 4503 2c3c 8225 833c ca98 ebb9 5473 6ebb
00000130: 6dce 043b 2914 60bb f1df 353c 686a 86bc
00000140: 5aeb b23a c1cb 353b 0d9a 543b b961 063a
00000150: 86c6 583c 3b70 e53b 8996 3dbc ae2d 4d3c
00000160: b3ba 12bc 9850 79b9 3445 42bc 3161 ffba
00000170: 620c b23b e3b1 5cbb 667a 71bb c4b5 50bb
00000180: 69a1 ce3b 380a 3b3b ec45 f63b 46fa 51bc
00000190: 7992 adbb 7848 7ebb 0979 b23b 70de 1f3c
000001a0: afca afbb 0b24 883b 3004 b7bb 0ba8 4e3a
000001b0: b65f 253c 367b 123c 7abd 2abb 7cfa ec3a
000001c0: 4464 363a c486 e5ba cdb1 663b bd00 c0bb
000001d0: c8cc cc3b 0510 0cbc d18b 6fbc 5f48 9a3a
000001e0: 256a 2ebb efdf 753a 56ee 84b9 e78a 42bc
000001f0: ef0d c7ba bee3 e43b 8ca1 30ba b9a2 78bb
00000200: e38a af3b fcb7 33bb 5248 edbb d9b5 40bc
00000210: 9ee2 06bc d951 9c38 81dd 38bb 8330 193c
00000220: 4fd2 863b e227 323c aa83 ecbb 92ca f938
00000230: b458 c7bb d1c0 633b b821 b8bb 084f 3b3b
00000240: eab9 5f3c 7026 1d3a 55ab 80bc 0c62 8e3b
00000250: ca77 c8ba 1478 113b 6041 f33a 3492 44bc
00000260: c935 91bb 83d3 2fbc 562a 8fbb 693b 5a3c
00000270: 8007 44bc fefd 08bc 9a79 13bc 7e54 9fb9
00000280: bde1 34bc 3ad3 3aba d05e debb 5786 80b9
00000290: 7117 4abc 5310 8a3b 326a 00bc 0a83 d5bb
000002a0: e3f7 82bc 2599 283a 83f4 a33b ea5e db3a
000002b0: 9d3f 073c 0a59 e23b d437 373c a48f 87bc
000002c0: 539c c23b b2d2 b43b a8b9 95bb b4b3 863b
000002d0: 63d9 113a 2a3c 5b3b ae57 67ba 1600 0abc
000002e0: e105 703c e50c e23b f391 16bc 3c57 063c
000002f0: d8d4 91bb 8e01 03bc 50d8 14bb cac4 86bb
00000300: af2c 593c 30fa b439 60b2 a53b 826c 0f3a
00000310: a3ca c23a 8ff4 3b3a 97e2 9a3b 5383 13bc
00000320: 2d84 6e3b d4a2 153b 9623 033c 71ed bbbb
00000330: c177 1e3c 5017 b1bb 7468 44bc dbf1 62bb
00000340: b5dc 3e3c 2778 37bc b8f0 a4bb 9eef 3a3c
00000350: 83dd 84bb b26f 893b c96a bc3a 583c 28bb
00000360: 113b 12bc bb4b 203b 4014 d33b 4fb2 0b3c
00000370: 55c4 61bc b81b 1fbc e85b 773b d76f 93bb
00000380: 6b63 02bc 41df fbba 847d a0ba be7e 4abb
00000390: efef 8f3a 369d 01bc 3e20 9d3b 7e45 b03b
000003a0: e985 9bbb 9ef4 c83a e3e1 14bc d74b f43a
000003b0: 08f4 563c 29e4 7f3a a8a2 853b 230c 5cbb
000003c0: b848 483b 45d8 aa3b 70e5 81bc 25e0 803c
000003d0: 0aaa c8ba 7c4b 02b9 b18b 82bb 13de ed3b
000003e0: 8b5b 253c 6200 edba 821c 84bc 56e4 c9bb
000003f0: ad88 7cbb e515 8e3b 439c 70bc 23e5 c93b
0.0055024093 -0.0017398116 -0.0081314845 -0.017253727 0.0133540025 0.0033413281 0.014881551 0.01570833
-0.0039085564 -0.012529743 -0.0016149243 0.016093817 -0.008195673 0.010091404 -0.001127609 -0.003073081
-0.0019395807 -0.009115123 0.0033686403 -0.00069156516 0.0067622242 -0.00926025 -0.003157444 0.007677117
-0.012460284 0.007695119 0.0052160267 0.010643153 -0.0035705818 -0.0041355393 0.002720606 0.006545656
-0.0045787115 0.0029654668 0.004631141 0.007927315 -0.014332001 0.0039668195 -8.4462685e-05 0.008413143
0.00915358 0.007948944 0.001535579 -0.010058695 -0.009504092 0.0048736846 -0.016868576 0.004334499
-0.0016082918 0.0031556694 -0.016573261 0.003332092 -0.009472206 -0.0020413778 -0.011964359 -0.0012984301
-0.0012521388 -0.00042261844 -0.000104842235 -0.007514746 -0.015214407 -0.010527677 0.0035767015 0.00953116
0.015302701 0.0039042258 0.0017896135 -0.010917065 -0.009075081 0.015431248 -0.010164566 0.0021465912
0.010498826 0.016009096 -0.0004493653 -0.003638466 0.002026464 -0.0034191704 0.011100755 -0.01640816
0.0013650462 0.0027739855 0.0032440454 0.0005126256 0.013230925 0.0070019043 -0.011571535 0.012523098
-0.008955645 -0.00023776514 -0.01185732 -0.0019483921 0.005433605 -0.0033675365 -0.0036846637 -0.0031846622
0.0063058627 0.0028540026 0.0075156596 -0.0128160175 -0.005297002 -0.003880052 0.0054465574 0.009757623
-0.005364738 0.0041546873 -0.005585216 0.0007883317 0.01009362 0.008940509 -0.0026052878 0.0018080021
0.000695769 -0.0017511477 0.0035201192 -0.005859463 0.0062499978 -0.008548741 -0.014620737 0.0011770836
-0.002661356 0.0009379377 -0.00025354576 -0.011873937 -0.0015186648 0.006985157 -0.00067379395 -0.0037938787
0.0053571328 -0.0027422896 -0.0072412873 -0.011762106 -0.008232741 7.453905e-05 -0.0028208198 0.009349945
0.004114426 0.010873767 -0.007217844 0.00011910977 -0.0060835723 0.0034752379 -0.005619254 0.0028581042
0.013655165 0.00059948023 -0.015706697 0.004345184 -0.0015294489 0.0022196816 0.0018558912 -0.011997748
-0.0044314605 -0.010731581 -0.0043690605 0.013319829 -0.011964679 -0.008361338 -0.00900116 -0.00030389795
-0.011040148 -0.0007126812 -0.006786205 -0.00024514153 -0.01233469 0.004213372 -0.007837819 -0.006515865
-0.015987342 0.0006431512 0.0050035133 0.0016736661 0.008254913 0.006907587 0.011182744 -0.016547985
0.0059390455 0.005518281 -0.004569251 0.0041107778 0.0005563704 0.0033452609 -0.0008825016 -0.008422872
0.014649839 0.00689851 -0.00919007 0.008199509 -0.004450422 -0.007995976 -0.002271194 -0.0041128146
0.013255282 0.0003451868 0.0050566643 0.0005471186 0.0014861416 0.0007169926 0.0047267186 -0.009003478
0.00363947 0.0022832649 0.00800409 -0.0057350923 0.009672106 -0.0054043904 -0.011987794 -0.003462902
0.0116493 -0.01119808 -0.0050335787 0.011409668 -0.0040547266 0.0041942233 0.0014375086 -0.0025670733
-0.008925215 0.0024459201 0.006441623 0.008526399 -0.013779719 -0.0097111985 0.003774399 -0.0044994163
-0.007958273 -0.0019216315 -0.0012244438 -0.0030898298 0.001098154 -0.007911017 0.0047951033 0.005379378
-0.004746188 0.0015331691 -0.009087059 0.0018638325 0.013119705 0.00097614765 0.004078228 -0.003357657
0.0030560922 0.0052137696 -0.015856475 0.01573188 -0.0015309465 -0.00012425886 -0.0039839377 0.0072591393
0.010092626 -0.0018081779 -0.016126875 -0.006161253 -0.0038533614 0.004336106 -0.014685693 0.0061613484

weight f4 [65]
00000000: e0ab 823f b54d 7e3f 59af 7e3f 1e7a 833f
00000010: 0206 713f 2959 6c3f e525 673f 83a1 7b3f
00000020: 95c9 773f 9fe5 813f 257c 793f a698 813f
00000030: 3d98 773f cbdd 6c3f 2ce7 793f eea4 7a3f
00000040: e7a9 7e3f b609 813f b87e 803f e72b 7a3f
00000050: 5166 7d3f 9592 753f a895 783f a05e 7d3f
00000060: b10f 7d3f 664a 693f b574 6f3f e31b 803f
00000070: c9f5 783f 96c1 803f 3f69 753f 313d 6e3f
00000080: d00d 723f dd9e 7b3f 31de 713f 5a0d 7c3f
00000090: d111 793f 0abb 6a3f 1311 763f e0bc 763f
000000a0: 02b6 6e3f 22c8 683f 4ddb 733f f5c2 7f3f
000000b0: babd 813f 8f2a 733f aa2a 6d3f 5b4b 753f
000000c0: 0822 803f 175f 783f 332b 833f 5e5b 843f
000000d0: cebc 813f 85d2 8f3f 0292 823f d657 8b3f
000000e0: ae0f 933f a7b6 893f 36e0 7b3f e232 883f
000000f0: 2e0c 8f3f e88d 833f b343 8c3f 8ee4 8b3f
00000100: 888e 843f
1.0208702 0.9933732 0.9948631 1.0271642 0.9414979 0.9232355 0.902922 0.9829332
0.96791965 1.01482 0.97455055 1.012471 0.9671667 0.9252593 0.97618365 0.9790791
0.99478 1.0081089 1.0038671 0.9772324 0.9898425 0.9592679 0.9710336 0.9897251
0.9885207 0.9112915 0.93537456 1.000851 0.9725004 1.0059078 0.9586372 0.9306212
0.94552326 0.9828928 0.9447966 0.9845787 0.9729281 0.9169165 0.96119803 0.9638195
0.9324647 0.9093038 0.952565 0.99906856 1.0136025 0.94986814 0.92643225 0.9581811
1.0010386 0.97020096 1.0247558 1.0340383 1.0135744 1.123612 1.0200808 1.088618
1.148916 1.0758866 0.98388994 1.0640528 1.1175592 1.0277681 1.095816 1.0929124
1.0355997

bias f4 [65]
00000000: dbd9 09bd dd0e adbc e7e5 a9bb 0497 373c
00000010: 94bf fd3a 1e42 b8bc 8f59 c1bc 1627 a83b
00000020: 5b08 3f3d 7c45 4dbd aa23 8d3d 4b02 98bd
00000030: 65c6 0fbd 0a97 0a3d c7bd 00bd 34eb a3bd
00000040: 5bef d83b b19b 6bbd 17a9 4cbd ab14 2bbd
00000050: 2fc2 61bd 31d8 8dbc 0c65 40bd 40f6 67bc
00000060: 3f4b 5b3c eecd 653c a430 ae3a 9b1a c53b
00000070: b3dd 05bc 280e 8b3d fb90 ec3c d870 b1bb
00000080: 3fb6 ebbb 5cfb 42bd 8882 64ba aad4 fcbb
00000090: f49c 9b3c 5c6b c8bc 0a82 1b3d 61c0 65bd
000000a0: 171e 523d b292 c6bc 276d 4ebc 9669 94bc
000000b0: 17c9 6dbd fbd7 da3c fe8d 5d3c f2b8 6c3d
000000c0: 22d9 10bd 63b1 d9bb cb37 ba3c 5f8e ff3c
000000d0: b75a f53b 9381 a33d 81d8 073d ce0c ca3c
000000e0: 8ff9 fd3c 4364 aa3b fe05 0e3d 90d8 813d
000000f0: e958 b53d 53e9 b43c 5515 673d 4c32 a63c
00000100: c636 513d
-0.03365503 -0.021125251 -0.005184877 0.0112054385 0.0019359463 -0.022492465 -0.023602275 0.0051316125
0.046638828 -0.050115094 0.06891568 -0.07422312 -0.035101313 0.03383545 -0.031430986 -0.08003846
0.0066203303 -0.057521526 -0.049965944 -0.041767757 -0.05511683 -0.017315002 -0.046971366 -0.014157832
0.013384639 0.014026148 0.0013289643 0.0060151345 -0.008170533 0.067898095 0.028877726 -0.0054150634
-0.0071933563 -0.047602996 -0.00087169604 -0.007715781 0.01899574 -0.024465255 0.03796581 -0.05609167
0.051298227 -0.024239872 -0.012599266 -0.018116754 -0.058053102 0.026714316 0.013522623 0.057793565
-0.035363324 -0.0066434606 0.022731682 0.031195818 0.0074876207 0.07983699 0.03316546 0.024664309
0.031002788 0.0051999404 0.034673683 0.06340134 0.08854849 0.022083914 0.05641683 0.020287655
0.051077627

running_mean f4 [65]
00000000: da9c bbb9 847b e43c 8c49 2d3a 09d5 473b
00000010: b586 12bc 8ce2 5f3c 7877 713c c234 953c
00000020: d09e db3a 3cc7 c83b 715f e13b 946b 013b
00000030: faae aab9 efa9 e73c 274e 453a 7da6 08bc
00000040: fa60 52ba c28d e7bb d49d cf3b e5e3 11bc
00000050: 0f2d cdbc 6b32 fa3b 32af 093c df1a 87bc
00000060: dc81 8ebc 5a13 6cbb 4695 40bc 91e5 e6bc
00000070: 9c62 a63a 7c34 393c c6a7 803b aed1 c53a
00000080: a367 d53b 80ad 763d 0ccc 64bc b9e4 b33b
00000090: 949c 0b3b cd4f 0dbd 04c7 30bc 3eb0 51bc
000000a0: bf4f 1a3c ff0d 1abb bdc9 d63b dbd3 8abb
000000b0: b5fc 413c 0152 70bc 45df 55bb e9f6 a5bc
000000c0: bb88 4e3a c7e6 6ebc 5a7d 12bb d7d7 2fbb
000000d0: 12c9 2bbb 42d5 25bb f77b 28bb 765d 27bb
000000e0: 80e8 26bb 9b57 2bbb cab9 1abb 96ae 23bb
000000f0: 1161 26bb 2b8a 21bb bbd5 25bb b2d1 26bb
00000100: 9f46 29bb
-0.00035784283 0.027890928 0.00066103856 0.003049197 -0.0089432495 0.013664853 0.014737956 0.018213633
0.0016755704 0.006127266 0.0068778326 0.001974796 -0.00032555294 0.028279273 0.0007526599 -0.008340475
-0.0008025315 -0.0070664594 0.0063359533 -0.008904432 -0.0250459 0.007635405 0.008403586 -0.016492305
-0.017395906 -0.0036022277 -0.01175434 -0.028185638 0.0012694183 0.011304017 0.00392625 0.0015092397
0.0065125986 0.060224056 -0.013964664 0.0054899123 0.0021303045 -0.034499932 -0.0107896365 -0.012798367
0.009418427 -0.0023506877 0.006554811 -0.004236681 0.011840035 -0.014667989 -0.00326343 -0.020259337
0.0007878651 -0.014581389 -0.0022352547 -0.0026831531 -0.0026212377 -0.0025304114 -0.0025708654 -0.0025537885
-0.002546817 -0.0026144746 -0.0023609274 -0.0024975887 -0.0025387446 -0.0024649005 -0.0025304395 -0.0025454578
-0.0025829447

running_var f4 [65]
00000000: 7e1d 993f 990f 833f dbb1 813f eb6c 7b3f
00000010: 3198 823f bdc5 803f d93e 743f b457 843f
00000020: 5ccd 773f 727f 913f aeb0 0c40 b7a2 513f
00000030: e058 683f 0d27 773f d958 d43f 1c2a 7d3f
00000040: 8a22 c83f 7ab0 853f e33b df3f d0a2 a03f
00000050: 1d41 783f d3b7 7d3f f295 e43f 2b63 003f
00000060: 21bc 843f 1e62 803f 9085 803f 9064 7b3f
00000070: 944a 803f 666b 7e3f 99e7 803f dc1b 813f
00000080: 244b 803f 6d90 1741 7e6b 023f 9d3a 833f
00000090: 4a07 803f 47d1 7c3f 4a47 7e3f 4e52 773f
000000a0: d5c9 823f 1b8b 7f3f 9330 853f d629 803f
000000b0: 94b3 a53f a025 663f f28d 893f 428a 103f
000000c0: 4985 ed3e 7878 303f bb24 803f 3136 803f
000000d0: fd43 803f 9341 803f 703b 803f 343b 803f
000000e0: 7642 803f af50 803f cd41 803f ac41 803f
000000f0: 3a42 803f 5940 803f 9441 803f 6642 803f
00000100: 9343 803f
1.1962125 1.0239135 1.0132402 0.9821307 1.0202695 1.0060345 0.954084 1.0339265
0.9679773 1.1367018 2.1982837 0.8188891 0.9076061 0.9654396 1.6589614 0.9889238
1.563554 1.0444481 1.7440151 1.2549686 0.96974355 0.9910862 1.785826 0.5015132
1.0369912 1.0029943 1.004076 0.9820032 1.002276 0.99382627 1.0070678 1.0086627
1.0022931 9.47276 0.5094527 1.0252262 1.0002224 0.9875683 0.9932753 0.9660996
1.0217844 0.99821633 1.0405449 1.0012767 1.2945428 0.8990116 1.0746443 0.56460965
0.4639075 0.6893382 1.0011209 1.0016538 1.0020748 1.0020012 1.0018139 1.0018067
1.0020282 1.0024623 1.0020081 1.0020041 1.0020211 1.0019637 1.0020013 1.0020263
1.0020622

weight f4 [200, 117]
00000000: 4a2c 0cbd 5874 81bc 8792 7dbd c3a2 243d
00000010: e4a4 9f3d f8d1 a5bc 2386 333a 8994 8dbd
00000020: 44d1 8b3d 59c0 9dbd 8bfb 78bd c381 943d
00000030: a639 11bd 515a 82bd 0211 e03c 5e8f 55bd
00000040: 551c 293d 0fe9 2a3d dab8 303d f988 6b3d
00000050: 4a74 44bd ac8b 683d d718 143d b119 84bc
00000060: 3b39 953d 2de8 8cbd 9d7f 353c 0953 adbc
00000070: 715c dcbc bb36 89bd 9bcd ccbc 09cd 603d
00000080: 921d 963c 8728 61bd 5e3b 553c 414f 713d
00000090: 43bb c6bc 7265 433d 8961 233d 92ea 89bd
000000a0: ed12 c2bc db18 a4bb 22d9 9bbc 3c6a 8abd
000000b0: 7cd2 98bc f036 8f3d 4f08 9dbc 9f89 9a3d
000000c0: 8724 8bbd a316 95bd a5bd 09bc 2073 5bbd
000000d0: 68b6 adbd e877 5abc dbd8 bc3c 8803 853d
000000e0: 3b25 853d c9ff 023c 7932 633d 7a0c e3bc
000000f0: 8562 6d3c ad53 0ebc c8d3 8ebd c8ba b7bc
00000100: 023b c2bd 3f05 483d 558b 943d 3408 a5bd
00000110: a90a fd3b e58b 893d 5e35 8bbd 3c2b 2cbd
00000120: 54b6 d73b 5f8f a83c 3f51 8fbd 946d 54bd
00000130: 542a b4bb 74ed 6cbc e128 9e3d 2cba dfbc
00000140: 6cc9 593d 7f4a b8bc 45fb 383d 28d9 be3c
00000150: 8155 0dbd a56c 86bb 19ca 90bd bc2c 66bd
00000160: abde 293d fe6f 87bd 898a 0b3c 764b 92bd
00000170: 68a6 f43c 855f 133d e394 89bb d77a 643c
00000180: 657a 5e3c 76aa c93d 7d09 0abc dc71 8e3d
00000190: 32f6 b03d 0c40 6cbd 6f37 263b 0e33 4d3d
000001a0: f251 a83c cd75 7fbd 2ed4 243d 79fa 3abd
000001b0: e1bf 6cbd 04f5 923c 859a 3bbd 9cfe cfbc
000001c0: ce2d 383c c8f2 abbb daf1 0a3d a1ac 28bd
000001d0: 30be 7e3d 2c57 623d 33ae 68bd 7c2a 363d
000001e0: 33f6 693d afbd cd3c f0c0 59bd 2e05 333c
000001f0: ff61 bc3c bb60 2abd b894 8f3d 289c 56bd
00000200: 0110 223d 6f92 923d d751 243d 1744 9abc
00000210: 14b6 37bb dc9d f83c 4dcf 683d df38 24bb
00000220: 573e fd3c b040 093c 06f4 723d 4612 e3bc
00000230: 6c75 4bbd 50ad e23c 74fc d4bc 900c 273c
00000240: da55 543d 9f30 7abc 4362 4f3d 7cdc 393d
00000250: 3986 723c 9dff 393d 2fee acbc 139a 443d
00000260: 2b22 473d 0c16 5e3d 646a 8b3d ed6d aa3c
00000270: 36de 973d c720 d73c 45f4 9b3c 9c6e 2d3c
00000280: ade9 9ebd 6b0a a4bd dd84 443b c552 82bd
00000290: 3001 62bb 2e91 8b3d 4002 32bc 0909 d0ba
000002a0: 0490 a13d 1572 9d3c 9956 8a3d 57a0 85bd
000002b0: e4f2 19bd e3c1 033d 04a9 86bd af23 093d
000002c0: f55d ebbc aff0 a73c f355 6bbd cdfe 2c3d
000002d0: 94f5 a53c ca01 7d3c caec aabc 77de 10bd
000002e0: 18c5 b93b d49a 7a3d 1586 3abd 75d4 043d
000002f0: 25c3 14bc a0ef c33d f4a6 22bd 2201 4ebd
00000300: 2e6a 013c e1d5 f0bc f037 ab3c 06e5 18bd
00000310: a353 23bd ef79 fe3b ad5b 8b3d 728e f4bc
00000320: 4d67 f43c 3e20 af3d af9f 953d 6c3a 43bd
00000330: 9990 bc3d e40c 693b ebe1 3e3d c472 c4bd
00000340: 9da8 163d fc02 a73d 4318 33bb 2779 923b
00000350: c9b7 ff3c 10ea 9b3d 3141 e4bc 590d 31bc
00000360: 9638 01bd 6e90 963d e6b0 f53c 38e4 53bd
00000370: 8e8b 4e3d f50b fcbc 9676 2bbd 0855 5abb
00000380: 0562 aa3c 7bd0 abbd 3121 c2bd f248 52bd
00000390: b8ed cebd 334c ddbd bb68 98bd 8e47 6abc
000003a0: 3d54 fdbd 2793 a9bd e43e 8a3c d15c 62bd
000003b0: 94f1 943d 9b54 c6bb a3af 443d 0922 b73c
000003c0: a983 133b da7f 0b3c 44a4 01bd f49e 923c
000003d0: d20b 4e3d 1252 1dbc 2023 c63c 9ff8 5fbc
000003e0: 3cd5 8f3d 62bf f83a d646 513d 04e8 0e3c
000003f0: 513e 68bd 3559 1ebd eb50 93bd 0ac6 853d
-0.034221925 -0.015802547 -0.061907317 0.040194284 0.07795122 -0.020241722 0.0006848296 -0.069130965
0.068270236 -0.07702703 -0.060786765 0.072513126 -0.03545537 -0.06364883 0.02735186 -0.05213868
0.041286785 0.04172617 0.04314504 0.057503674 -0.047962464 0.056773826 0.0361565 -0.016125532
0.072863065 -0.068802215 0.011077789 -0.021157758 -0.026899548 -0.06699892 -0.025000384 0.054883037
0.018324647 -0.05497029 0.0130146425 0.058913473 -0.024259215 0.047704168 0.03988794 -0.06734194
-0.023690665 -0.005007846 -0.019024435 -0.06758544 -0.018655054 0.069929 -0.019169 0.075457804
-0.067940764 -0.07279708 -0.008407031 -0.05357659 -0.08482057 -0.013334252 0.023052623 0.06494814
0.06501242 0.007995554 0.055468056 -0.02771591 0.014488821 -0.008686942 -0.06973988 -0.022427931
-0.09483911 0.048833128 0.07253138 -0.08058205 0.007722218 0.06716136 -0.06797288 -0.04203342
0.0065830145 0.020576177 -0.06997918 -0.051862314 -0.00549821 -0.01446091 0.07722641 -0.027310453
0.053170606 -0.02249646 0.045161504 0.023296908 -0.03450537 -0.004102307 -0.07069797 -0.056195006
0.04147212 -0.06613158 0.008516916 -0.07143299 0.029864505 0.035979766 -0.004198657 0.013945303
0.013578986 0.09846966 -0.008425114 0.06955311 0.08640708 -0.057678267 0.002536263 0.050097518
0.020546887 -0.062368203 0.040241413 -0.045649026 -0.057800177 0.017939098 -0.04580166 -0.025389962
0.011241389 -0.0052474476 0.033922054 -0.041180257 0.062193096 0.055258915 -0.056806754 0.04447411
0.05711956 0.025114862 -0.053162515 0.010926528 0.022995947 -0.041596156 0.07010788 -0.052395016
0.039566044 0.07156836 0.04011711 -0.018831296 -0.002803211 0.03034871 0.056838322 -0.0025058312
0.030913515 0.008377239 0.05931475 -0.027718674 -0.04967253 0.027670532 -0.025999285 0.010195866
0.051839687 -0.015270381 0.05063082 0.045376286 0.014802509 0.045409787 -0.021109669 0.0479985
0.04861657 0.054220244 0.06807402 0.02080437 0.0741543 0.026260747 0.019037375 0.010585453
-0.07759414 -0.080097996 0.002998642 -0.06363443 -0.003448557 0.068148 -0.010864794 -0.0015871833
0.07888797 0.019219438 0.067547984 -0.06524723 -0.037585154 0.032167327 -0.06575206 0.033481296
-0.028731326 0.020500509 -0.057455014 0.042235184 0.020258702 0.015442321 -0.020864863 -0.03536841
0.0056692474 0.06118281 -0.045538027 0.032429177 -0.009079729 0.09567189 -0.03971 -0.05029405
0.00789885 -0.02939886 0.020900697 -0.03732779 -0.039874684 0.0077660005 0.06804595 -0.02985308
0.029834414 0.085510716 0.07305848 -0.047663137 0.09207267 0.0035560662 0.04660217 -0.09592202
0.036781896 0.08154866 -0.0027327694 0.004470009 0.031215565 0.07613003 -0.027863117 -0.010806405
-0.031548105 0.073517665 0.029991578 -0.05173132 0.05042606 -0.03076742 -0.04186114 -0.0033314843
0.020798692 -0.08389374 -0.09478987 -0.051339097 -0.10103935 -0.108055495 -0.07441851 -0.0142992865
-0.12369583 -0.0828002 0.016875692 -0.055264298 0.0727264 -0.006052566 0.048019063 0.022355096
0.0022508895 0.008514369 -0.031650797 0.01789806 0.05030424 -0.009602087 0.02418667 -0.013670116
0.07023093 0.0018977935 0.051092945 0.008722309 -0.056700055 -0.038659293 -0.07193168 0.065319136

weight f4 [200]
00000000: 169f 7b3f c888 843f 923c 713f 3077 833f
00000010: da76 813f d84e 7b3f dfde 843f 4ea2 753f
00000020: b744 783f 2c81 803f 3085 823f 9eae 803f
00000030: 40c0 7b3f a57c 833f a6df 7a3f abec 7e3f
00000040: 5ccb 7d3f 34d0 7b3f 383a 753f f8a6 813f
00000050: c29a 823f bfc2 7b3f c7c2 7d3f fe27 7f3f
00000060: 315e 823f 2091 893f f31a 7a3f 6bec 783f
00000070: 9b3e 6f3f 2e81 853f b80b 823f f6ec 7b3f
00000080: 43ae 803f 44ad 853f 40a8 743f d33f 823f
00000090: 262b 813f 3a07 803f 0b7a 873f b440 813f
000000a0: 8a41 793f d80c 833f b0b0 853f ed6e 843f
000000b0: b28b 783f d2cb 7b3f de04 7a3f 769f 7f3f
000000c0: 3112 803f ceb3 7a3f cc39 7c3f 1ab0 833f
000000d0: 7995 7b3f 6f69 813f 9d5e 783f 41fd 853f
000000e0: b8d1 7b3f f0c2 783f df2d 833f 6abc 803f
000000f0: 8078 833f b9bb 863f a68d 783f e1a8 7b3f
00000100: 648a 863f c156 763f a947 823f a7d8 7d3f
00000110: 7f12 883f 59ad 813f e3e8 773f 56a8 773f
00000120: 1db6 7b3f 683b 763f 6a13 793f 7c8a 823f
00000130: 1720 773f 5107 7c3f 1beb 823f 666b 7e3f
00000140: bc5f 773f 0044 803f 1f54 823f 1a51 813f
00000150: d61f 843f 5a4d 773f 1ad4 743f f5e4 723f
00000160: 802f 7d3f 7a2c 883f 8763 803f e7bd 823f
00000170: 3386 853f d4bb 7a3f 63c6 7b3f dc83 863f
00000180: bb56 7d3f 3ab5 853f 7c73 783f 51c6 7f3f
00000190: 71d7 7f3f c14d 7d3f 2379 803f a11b 7c3f
000001a0: d2c7 7f3f 73d4 843f 2dc4 7c3f 0f4a 803f
000001b0: 3a42 7a3f a278 833f 9210 763f c199 823f
000001c0: 531b 7d3f e3a2 7f3f d5a7 783f d43a 803f
000001d0: 794f 843f e297 853f 3303 7b3f 9df9 813f
000001e0: d25d 743f a033 833f dc25 7c3f 6666 833f
000001f0: dda5 7d3f 53c7 803f 312f 7a3f 9571 803f
00000200: 4120 803f 2f4e 853f 9368 7a3f 1d00 843f
00000210: 5ed0 813f d43f 7d3f 7c2c 793f 6067 853f
00000220: 27d3 7d3f da4d 743f fb98 783f ab2a 813f
00000230: 5ac7 783f 5f04 853f d458 7c3f 3de9 773f
00000240: 9db9 803f f021 7a3f 63f9 743f 050c 833f
00000250: 6019 833f d76b 793f f0b0 7b3f 102c 813f
00000260: fc54 753f 8ff9 773f f0ab 863f c7a7 7d3f
00000270: b116 7d3f bd84 833f 5a06 813f 6791 813f
00000280: a423 823f 98fc 7f3f 2a27 7c3f afb6 773f
00000290: 8f45 743f b9af 7d3f 78c9 7c3f 4e2e 733f
000002a0: a988 803f 0a9b 863f 5fee 853f b020 773f
000002b0: 7e97 763f 2b56 7d3f d332 7b3f 5ffa 813f
000002c0: 920b 7a3f dfa0 7e3f 30c1 7f3f 6d78 7a3f
000002d0: 9cad 743f d561 7a3f 6183 7c3f 723f 793f
000002e0: 500c 813f 3668 7c3f 71a2 7f3f c120 803f
000002f0: fba3 823f 87a4 793f 4e63 843f 6449 7e3f
00000300: 28d5 753f 3dd9 883f 3818 8a3f e0d0 7c3f
00000310: 6a81 7e3f 0029 813f 510c 843f 68a3 883f
0.9828962 1.0354242 0.9423305 1.0270748 1.0114396 0.9816718 1.0380515 0.9595078
0.9697985 1.003942 1.0196896 1.0053289 0.98340225 1.0272413 0.9799751 0.99579877
0.99138427 0.9836457 0.9579196 1.012908 1.0203478 0.98344034 0.9912533 0.996704
1.0184995 1.0747414 0.9769737 0.97235745 0.93454903 1.0430048 1.0159826 0.9840845
1.005318 1.0443501 0.9556923 1.0175728 1.0091293 1.0002205 1.058412 1.0097871
0.9736563 1.0238295 1.0444546 1.0346352 0.9708816 0.9835788 0.97663677 0.99852693
1.0005552 0.9793061 0.9852569 1.0288117 0.9827495 1.0110301 0.9701937 1.0467912
0.9836688 0.9717245 1.0248374 1.00575 1.0271149 1.0526038 0.9709114 0.98304564
1.0510983 0.96226126 1.0178119 0.9915871 1.0630645 1.0131027 0.9683973 0.96741235
0.9832476 0.96184397 0.9729525 1.0198512 0.9653334 0.98448664 1.0227998 0.99382627
0.96630454 1.0020752 1.0181922 1.0102875 1.0322216 0.96602404 0.9563614 0.9488061
0.98900604 1.0638573 1.0030373 1.0214204 1.0431579 0.9794285 0.9834959 1.050899
0.98960465 1.0445931 0.97051215 0.9991198 0.9993811 0.9894677 1.0036968 0.9847966
0.99914277 1.0377334 0.9873684 1.0022601 0.97757304 1.0271189 0.96119034 1.0203172
0.9886982 0.9985792 0.9713109 1.0017953 1.0336753 1.0436976 0.98051757 1.0154301
0.9545566 1.025013 0.9849527 1.0265625 0.9908121 1.0060829 0.9772826 1.0034662
1.0009843 1.0414485 0.9781582 1.0312535 1.0141714 0.9892552 0.973335 1.0422173
0.9915032 0.9543129 0.9710843 1.0091146 0.97179186 1.0391959 0.9857304 0.9684027
1.0056645 0.97708035 0.95693034 1.0238043 1.0242119 0.97430176 0.9831686 1.0091572
0.958328 0.9686517 1.0521221 0.9908413 0.9886275 1.0274884 1.0080063 1.0122498
1.0167127 0.999948 0.9849726 0.9676313 0.9541864 0.99096256 0.98744917 0.9499253
1.0041705 1.0516064 1.046337 0.9653425 0.9632491 0.98959607 0.98124427 1.0154532
0.97673905 0.9946422 0.99904156 0.97840005 0.95577407 0.9780553 0.9863797 0.97362435
1.0081882 0.98596513 0.9985724 1.0009996 1.0206293 0.97516674 1.0342805 0.99330735
0.96028376 1.0691296 1.0788641 0.9875622 0.9941622 1.0090637 1.0316259 1.0674868

bias f4 [200]
00000000: 9372 d43a 23fa 52bb 628b 093d 7b1f 4fbd
00000010: 7697 a5bc 8e90 cfbc 113f 973d 0598 04bd
00000020: e1a3 023d a0f8 bbbb fc16 14bd ab59 823d
00000030: 5359 e93a 7396 fe3c 6f6a 323b 9fa3 b5bb
00000040: d394 05bd d4d8 973c e6b8 bf3c c03b da3b
00000050: ffc2 533c e0c7 b73c e1f6 163d c8c4 39bd
00000060: 3b28 d4bc ca9d c0bd 797c af3b a614 bfbd
00000070: b009 063d dd2a 443d bfe1 9dbb 5f4a 833c
00000080: 79c2 a3bc 14c5 0b3d 7161 c13b 2258 24bb
00000090: b4bf 2d3b 13bd 2bbd f108 c0bd aef3 cebc
000000a0: 16d7 353c 1679 f43c 7700 acbc f53f 02bc
000000b0: edfb 84bc ba14 1cbd 529b d23c 64e2 f0bb
000000c0: 7ad5 d43d dc69 7a3d 5f78 8b3b a67b bd3c
000000d0: 4764 053d b50a c33b a049 10bd 9dcd 733c
000000e0: 0377 a53c d553 583c a7fb f3bc a2cf f9bc
000000f0: a49c 8a3d 6d59 93bb 5cc7 303c 6a55 883d
00000100: ac39 3cbd bef1 94bc 56cc 88bc be52 d03c
00000110: 6152 5f3c 472c 923a 093c 713d 412f 073d
00000120: c554 82bc 7199 45bc f9a6 913b cc1c f0bc
00000130: 7ade 88ba cc75 68bd 45df 40bc 7ad9 ec3c
00000140: 1102 9d3c f716 cfbc a9e2 28bd 8150 df3c
00000150: cb1c 4f3d f212 bc3b 7dd3 463c 89e0 a73c
00000160: 4b20 42bd 00ec 503d c610 11bd 5573 35bd
00000170: 0344 61bd 18ba 92bc 1aa0 46bc b706 30bc
00000180: f443 80bd ebd2 103b fc24 4c3c b836 abbc
00000190: 9ec8 53bc 4a38 ba3c 6b74 ec3c 6dcd 563b
000001a0: 3753 0f3d 36bc 543d bc55 1a3d f11f 3c3c
000001b0: 820b 043c 99e5 07bd 8f99 8cbc 4d78 893c
000001c0: 8b97 bdbc ab60 4dbc 1cad 563c 2816 cebc
000001d0: 20eb cbbd 33e5 82bd bccf 3b3b 347b 933b
000001e0: b555 b2bb 00b1 543c 60b6 7abd 548a c3bc
000001f0: 1822 813c 7a36 16bc 2dfa ca3c 2934 92bc
00000200: aa06 8f3c 0205 273d b587 d03c 6f00 26b9
00000210: d96e 39bd 6538 203d f2d7 2d3b c536 4a3d
00000220: 1bba 1c3c b3f4 35b9 01f1 14bb d941 22bc
00000230: d0c6 c33c 58f4 8f3a 9111 c13c 2596 59bc
00000240: dd0a e33c 26a5 edba 333d 6abb c1dc c63c
00000250: a102 653d f335 843c 80e8 cd3b 37c0 983c
00000260: 5f21 593d 427d 623d c9c2 743c 3465 063d
00000270: 7a90 a03d 52c7 9c3d 1613 66bc e665 103d
00000280: 4a79 6d3c 309c e63c 3c3b 4d3b 3b76 18bd
00000290: fd0f f9bb 7895 0f3d 7b26 e9bc 2c5f 1b3d
000002a0: cc1a 6b3d 2df0 60bd 0467 8abd 4691 3abd
000002b0: 84d3 54bc d48f 603d a38f d23c fb70 44bd
000002c0: 43e0 44bc 6b78 93bc 2e02 1dbb f51a 193b
000002d0: 89b7 e33b c28c 0cbd 4a6d 063d 75cc 0abd
000002e0: ec79 2d3c 5fa9 e7bc a201 653c 149d 4c3c
000002f0: 5b32 773d e9c5 97bb 47e2 1fbd 427c 353c
00000300: 582b 923c 3fe6 483d 8917 88bd e8ba be3c
00000310: 7d2a 7fbc d0a3 a3bc b056 4eba 26e5 babd
0.0016208462 -0.003219255 0.03358019 -0.05056713 -0.020213824 -0.025337484 0.07385076 -0.03237154
0.03189457 -0.0057364255 -0.036154732 0.06364759 0.001780311 0.0310776 0.0027224084 -0.005543187
-0.032612633 0.018536009 0.023403596 0.006659955 0.012924909 0.022434175 0.036856536 -0.04535368
-0.02589809 -0.09405096 0.0053554145 -0.0933011 0.032724082 0.04789244 -0.004818171 0.016026674
-0.019990193 0.034123495 0.0059015085 -0.0025076945 0.002651197 -0.041928362 -0.093767054 -0.02526268
0.011098644 0.029842895 -0.020996315 -0.007949819 -0.016233409 -0.038105704 0.025708828 -0.0073512066
0.1039228 0.06113611 0.0042562927 0.02313025 0.032566335 0.005952204 -0.035226464 0.014880565
0.02019835 0.013203581 -0.029783083 -0.030494515 0.06768158 -0.0044967444 0.0107897185 0.066569164
-0.045953438 -0.018181678 -0.016698997 0.02543008 0.0136304805 0.0011152112 0.058895145 0.03300405
-0.015909562 -0.012060509 0.0044449535 -0.029310606 -0.001044228 -0.056752965 -0.011771982 0.028912295
0.019166024 -0.025279505 -0.041231785 0.027260067 0.05056457 0.005739563 0.012135384 0.020492809
-0.04739408 0.051006317 -0.035416387 -0.044299442 -0.0549965 -0.017911002 -0.012123132 -0.010743788
-0.06262961 0.0022098373 0.01245999 -0.020900115 -0.012926249 0.022731919 0.028864106 0.0032776252
0.03499147 0.051937304 0.03767942 0.011482225 0.008059384 -0.033177946 -0.017163066 0.016780997
-0.02314355 -0.0125352545 0.013102796 -0.02515705 -0.09956956 -0.063913725 0.0028657755 0.004500771
-0.005442346 0.012981653 -0.061209083 -0.02386967 0.015763327 -0.009168262 0.024777496 -0.017847138
0.017459232 0.04077626 0.025455335 -0.00015831155 -0.04527173 0.039116282 0.0026526419 0.04936864
0.009565855 -0.00017352663 -0.0022726657 -0.009903395 0.023898512 0.0010982854 0.023567947 -0.013280426
0.027715141 -0.0018130883 -0.0035742044 0.024275186 0.05591071 0.016139006 0.0062838197 0.018646343
0.05301034 0.055295236 0.0149390185 0.03281136 0.07840057 0.07655205 -0.014042636 0.035253428
0.01449425 0.028150648 0.0031315824 -0.03722213 -0.007600783 0.035054654 -0.028460732 0.03793256
0.057398602 -0.05491655 -0.0675793 -0.0455487 -0.012989882 0.054824665 0.025703257 -0.04795931
-0.012016359 -0.018001756 -0.0023957598 0.0023362015 0.0069493693 -0.034313925 0.03281907 -0.03388639
0.0105881505 -0.028279005 0.01397744 0.012488622 0.060350757 -0.004631747 -0.039034154 0.011076989
0.017842934 0.049047705 -0.06645114 0.023282483 -0.015574095 -0.019975573 -0.0007871194 -0.09125738

running_mean f4 [200]
00000000: d517 173e 63cc cf3e da62 063e 3b68 653e
00000010: fda2 5d3e b716 b83e a3ff f03e 84ff 883e
00000020: 9172 073e eda6 163f 4ab7 bb3e 11b8 a63e
00000030: e7ae e23d f498 6b3f b258 783e 96e3 a23e
00000040: 517d 6b3e d61b a53e b3dc 403e fb05 ed3e
00000050: c734 7b3e a9cd f83d a696 3e3e 057a 053f
00000060: ac56 c33e 07e2 b63e 0094 ff3d 777b 893e
00000070: fcc5 2b3e 37d8 5d3f 6566 8e3e 8c85 133e
00000080: f13e 733e a655 093f 9247 093e b716 893e
00000090: 9526 903e e3d7 bc3e 8c43 2a3e 0f33 8d3e
000000a0: d92a 3e3e 1640 223e 3f50 d13e ab89 aa3e
000000b0: a646 423e 8904 133f 6034 103e fe1a 713e
000000c0: c474 063f 00ba 183e 3d7c 423e 245f 463f
000000d0: 832c 043f da8a ee3e ff9f 9d3e 4acb 0e3f
000000e0: a440 dd3d bb10 473e 2876 813e 1081 7b3e
000000f0: 1e96 993e 32f6 fa3d 1045 4d3e 4408 343e
00000100: 4713 173e 975e 8e3e 0b18 9d3e b915 9e3e
00000110: d69e 063f df8d 7a3e 6eca 6b3e a8a3 3d3e
00000120: fd3c c13d d8f3 0f3e 0d94 1a3e 6e7a 313e
00000130: 9e20 373e cab1 263f 1255 433f 2f77 a43e
00000140: a9c5 423e b224 263e 468c a93e 172a 1a3f
00000150: 8323 dd3e 2eb0 b43e f4af b23e 7c45 d73d
00000160: 50bf 523e 0c12 003f 07d1 593e 8d0e 943e
00000170: 82b5 703e 378c 103e 56f3 e13e b9e3 a43e
00000180: 79d0 de3e fbf8 983e 2635 0d3e 2667 893e
00000190: 1d2c 653e f4b8 fc3d d338 ba3e 7127 083e
000001a0: 2430 0d3e ea26 a83e 1229 353e 0f4c 233e
000001b0: 572c 243e 1af0 043f 123b 083f 1cc4 453e
000001c0: 4906 0c3e 3c6a 0b3f 89a9 153e 83b0 cd3e
000001d0: b792 ca3e 8a2a 913e 5e4f 1f3e 3be4 113f
000001e0: 07a9 8f3e a758 0c3f 81fe d13e 154a 6c3e
000001f0: 1280 8e3e be79 dc3e 41c4 5d3e 3172 0c3f
00000200: 0edc 643e 0bce 213f abbd 343e 4d4c 373f
00000210: 96a7 0b3f c16d b43e b49d 453e cf37 be3e
00000220: 609d 873e ff87 e03e 3e15 0e3e 0277 863e
00000230: 3c6e b73e ee6c fa3e 8727 053e b52d b13e
00000240: e496 533f 3802 093e 19f4 423e 521d 443f
00000250: cab4 053f a4ea 0f3e 0aab 3f3e 337c 5f3e
00000260: 121d 493e 356a b33e c7f4 c43e 3b76 3b3e
00000270: dbeb 9c3e 336a f83e a6d1 443e f693 343e
00000280: eeb9 133f fe93 ab3e e758 e73d 87a3 c43e
00000290: 8c09 c23e 70d1 5a3e 1fea 813e 518b 4b3f
000002a0: bb11 043f d585 4e3e 5827 a33e 8654 1d3e
000002b0: 4f9d 4a3e a474 053f fc71 d33e 0619 a73e
000002c0: 62db f53d 43b6 a73e df42 eb3e 0c5a 1b3e
000002d0: 2505 353e 24cd 053f 4490 613e 46f8 2f3e
000002e0: f023 493e 3290 253e 986c b33e f9d3 653e
000002f0: 6112 903e d70b 123f 322e a43e 97d3 9b3e
00000300: 8d14 173e 926a 463f 862f d93e 80f6 4e3e
00000310: ad23 c83e c370 523e 500e 033f 5172 ed3e
0.14755185 0.40585622 0.13123646 0.22403042 0.21644206 0.3595483 0.47070035 0.26757443
0.13227297 0.5884846 0.36663276 0.32562307 0.11068516 0.9203026 0.24252585 0.3181426
0.22997023 0.322478 0.1883419 0.46293625 0.24531852 0.121486016 0.18612155 0.5213931
0.38152063 0.3571932 0.12479401 0.2685201 0.16774744 0.8665804 0.27812496 0.14406413
0.23754479 0.53646314 0.13406208 0.26775143 0.28154436 0.36883458 0.1662733 0.27578017
0.18571033 0.1584476 0.40881535 0.33308157 0.18972263 0.57428795 0.1408248 0.23545453
0.5252192 0.14914703 0.18992706 0.77488923 0.5163042 0.4659031 0.3078613 0.55778944
0.10803345 0.19439976 0.2528546 0.24560952 0.29997343 0.12253989 0.20045877 0.17581278
0.14753447 0.2780654 0.30682406 0.30875948 0.52586114 0.24468182 0.2302644 0.18519461
0.09435461 0.14057863 0.1509554 0.1733186 0.17883536 0.65115035 0.7630168 0.3212218
0.19020714 0.16224936 0.33114833 0.60220474 0.43191156 0.35290664 0.34899867 0.105113
0.20580792 0.5002754 0.21271144 0.2891735 0.2350674 0.14115988 0.44130963 0.3220499
0.43518427 0.29877457 0.13789806 0.2683651 0.22380109 0.123399645 0.36371478 0.13296296
0.13787895 0.3284219 0.17691448 0.15946983 0.1603254 0.51928866 0.53215134 0.19313091
0.13674273 0.54458976 0.14615454 0.4017373 0.3956506 0.28352767 0.1555762 0.5698888
0.28058645 0.5482277 0.41014484 0.23075135 0.27832085 0.43061632 0.21656896 0.5486174
0.22349569 0.6320502 0.17650478 0.716008 0.5455259 0.35239986 0.1929844 0.37151954
0.26487255 0.43853757 0.13875291 0.2626267 0.3582629 0.48911232 0.1300336 0.34605184
0.82652116 0.13379753 0.19038428 0.7660724 0.5222899 0.14054352 0.1871759 0.21824722
0.19639996 0.35041967 0.38468 0.1830682 0.30648693 0.48518524 0.192206 0.17634568
0.5770558 0.33511347 0.11296254 0.3840601 0.3789791 0.21368957 0.25373933 0.79509455
0.51589555 0.2016824 0.31865954 0.15364274 0.19786571 0.52131104 0.412979 0.3263628
0.120047346 0.32756242 0.45949456 0.15171069 0.17677744 0.52266145 0.22027689 0.17184553
0.19642615 0.16168287 0.35043788 0.22444142 0.28139022 0.57049316 0.32066494 0.30434868
0.14753933 0.77506363 0.4241907 0.2021122 0.39089718 0.20550828 0.51193714 0.4637628

running_var f4 [200]
00000000: 38c0 023d 4c86 733e 5775 353d c9b2 a73d
00000010: 7823 ba3d e759 833e a8aa 563e 852a 3f3e
00000020: f232 153d 49c5 9d3e 46c5 083e 5152 f03d
00000030: 0ae6 d43c 83d7 323f 16d9 cc3d cfaf 2b3e
00000040: b2c6 ba3d f386 213e 2384 bd3d 87f6 503e
00000050: 4f9b a93d 665e 123d 67f2 9b3d e31a f33e
00000060: b414 9b3e 4670 533e 560f e33c 9a53 523e
00000070: e23b 673d eb58 1a3f 44e5 cf3d 1694 383d
00000080: 2d61 c03d 1f19 853e bcfc 243d f2bb f03d
00000090: 4d64 033e 6f3c 523e 76d0 3b3d f254 293e
000000a0: 188d 863d ff14 403d 09c4 823e 882c 043e
000000b0: cdb7 9b3d 83b6 023f dfd8 5e3d 886e c03d
000000c0: 55a2 893e 51af 203d 7563 bb3d 4af7 fe3e
000000d0: da63 813e d79f a03e 3eb7 623e 0d82 8c3e
000000e0: 70b4 1f3d 86fe b53d 54a1 c93d 71fb e03d
000000f0: abea e03d d762 e63c d6f7 d23d da4d 4a3d
00000100: d871 243d a733 b73d 6435 143e 8ae3 db3d
00000110: 0793 843e ec75 f33d 864e 9b3d b857 723d
00000120: baca 623d 8938 c33d ae32 153e 154d 553d
00000130: 98b2 b73d 07fe 2a3f 523b f63e 412b fa3d
00000140: 45e0 783d 1157 463d 44fd 233e 3dec ad3e
00000150: 254e 403e 61fb 953e 66a1 4f3e e83f 633d
00000160: e34e 003e 946e 703e 8da6 ba3d 2ad7 093e
00000170: 2778 133e 161f 9e3d 8048 a53e e58d 2d3e
00000180: e2da a23e 24cc de3d b1d2 413d bc1d e93d
00000190: 8f46 b33d 32c5 283d 1939 603e 84cd 673d
000001a0: c906 4e3d 2548 ed3d 9e8f 9f3d 775b 543d
000001b0: 5a72 453d 99e3 c33e fde5 e43e e6fd 833d
000001c0: 8a66 2f3d f4ef e03e e5a3 353d b419 873e
000001d0: f484 683e 514e ff3d a212 793d 7570 ec3e
000001e0: 191e bc3d 9d64 883e 41ca 9b3e 32a9 b43d
000001f0: b06e 0f3e a086 363e 3740 853d 169f df3e
00000200: d303 9b3d a9e9 b23e 59c1 773d 9f6e db3e
00000210: e350 e03e b15b 063e c6e5 503d b386 263e
00000220: 246d 4b3e 6d75 943e d2e7 573d 479b e63d
00000230: 6bd4 633e b362 6b3e 69ff 043d 5994 883e
00000240: 34ec 0d3f 8d95 813d c921 593d da97 f23e
00000250: 47f5 753e b144 6a3d d86a 623d 7ffd a03d
00000260: 3891 753d 4dbf 233e 8438 223e 6c0d 433d
00000270: f1d7 083e f528 5b3e 7291 8d3d 592e 673d
00000280: 8099 923e a8ed 2a3e 0eca 3d3d 0e29 913e
00000290: 6444 173e ef67 7f3d a4b2 cd3d 759c 053f
000002a0: b727 6f3e 294a 8e3d eba7 203e ad4d 533d
000002b0: ff30 c43d f4d0 7c3e 1ef9 883e 5a91 443e
000002c0: 70e2 3c3d db66 5a3e aa33 533e 377a 883d
000002d0: dd04 a73d 5bf7 d33e 0ff9 f63d 8828 803d
000002e0: b736 b13d 64bc a33d c9a1 4b3e 91f7 953d
000002f0: 75bd cf3d 8700 f53e c1d3 323e c99e 1b3e
00000300: fe75 d43d 2158 013f 5b28 873e 73b6 bc3d
00000310: 0f0d 6d3e 7d20 dd3d 8421 c03e e896 9c3e
0.031921595 0.23781699 0.044301357 0.081883974 0.090887964 0.25654528 0.20963538 0.18668564
0.03642554 0.3081458 0.13356504 0.117344506 0.025988597 0.69860095 0.10002343 0.16766284
0.091199294 0.15774135 0.09253719 0.20406543 0.08281576 0.035734557 0.07614594 0.4748145
0.30289233 0.20648298 0.027717274 0.20539704 0.056453593 0.6029193 0.10151151 0.0450631
0.09393535 0.25995728 0.04028009 0.11754598 0.1283123 0.20530866 0.0458531 0.1653631
0.0656988 0.046895023 0.25540188 0.12907612 0.076034166 0.5105974 0.054406043 0.09396082
0.26881662 0.039229695 0.09149829 0.49798042 0.25271493 0.31371948 0.22140214 0.2744297
0.038990438 0.08886437 0.09845224 0.10985459 0.10982259 0.028123302 0.10301177 0.04939065
0.040147632 0.08945399 0.14473492 0.10736759 0.25893423 0.11887726 0.075833365 0.059165686
0.055369116 0.095322676 0.14570114 0.052075464 0.08969611 0.66793865 0.48092133 0.12215281
0.060760755 0.048422877 0.16014582 0.33969298 0.1877981 0.2929335 0.20276412 0.055480868
0.12530093 0.23479682 0.09113798 0.13460985 0.14401303 0.07720773 0.32281876 0.1694866
0.3180762 0.108787805 0.04732007 0.113826245 0.08753692 0.041203685 0.21896781 0.05659248
0.05029944 0.11586026 0.07791065 0.05184504 0.048204757 0.3825958 0.44706717 0.06444912
0.0428224 0.4393307 0.044345755 0.26386797 0.22706968 0.124661095 0.060808785 0.46179548
0.09185428 0.26639262 0.30427745 0.08821334 0.14007068 0.17824793 0.06506389 0.4367606
0.07569089 0.34943894 0.060487125 0.42857835 0.43811712 0.13120915 0.05100038 0.16262321
0.19865853 0.2899584 0.052711315 0.112600856 0.22249 0.2298687 0.03247014 0.2667568
0.5543854 0.06327353 0.053010736 0.4738148 0.24019347 0.057194415 0.055277675 0.078608505
0.059952945 0.15990944 0.15841872 0.047620222 0.13363625 0.21402343 0.06912507 0.056440685
0.28632736 0.16692221 0.046335272 0.28351635 0.14772183 0.06235498 0.100438386 0.5219186
0.23354994 0.06947739 0.15689056 0.05158775 0.09579658 0.24689084 0.2675256 0.19196072
0.046114385 0.21328299 0.20625177 0.06663936 0.081552245 0.41399655 0.12059223 0.06257731
0.08653014 0.07994917 0.19885935 0.0732261 0.10143558 0.47851965 0.1746359 0.1519729
0.10374068 0.505251 0.26397976 0.09214487 0.23149513 0.10797212 0.3752557 0.30583882

weight f4 [100, 200]
00000000: a006 a23d ea30 503d 9e02 4a3c 604a 333d
00000010: db18 8d3c ada0 893c 78c2 95bc 684b f43c
00000020: 1c15 63bc f031 8abd dc79 bcbd d884 9abd
00000030: a39f fdbc 8249 14bd cda5 ffbb fb21 323b
00000040: e6f9 803d e24f fbbc 65a2 07bc d743 e7bc
00000050: 7485 40bd bf0c e3ba 453a 513c 8fc7 57bd
00000060: 1906 c5bb 90fa 2b3d a096 46bd 9cd9 3dbd
00000070: 2a87 b53d 020d 9cbd 46ab 063d 6b17 3cbd
00000080: 42ef 943d 560e 853c 0a7a 963c 48b5 96bc
00000090: e904 b03d 8195 c33b 414e 1dbb 22b3 c0bc
000000a0: b287 a5bb c6d2 6abb cd9a 753d 3736 9f3c
000000b0: b22a 873c ef7c 4d3d aa3c bb3b 24f4 26bd
000000c0: 0220 c5bb 1ff6 0d3d e3d2 abbd 6bdd 593a
000000d0: d8a9 a9bd 9908 d1bc 82a7 64bd 8e53 acbb
000000e0: d5c8 52bc 3e07 fc3c 73e5 4e3d d5f5 443c
000000f0: 8ebf c1bc 543f a5bb 40bd 84bc 79d1 093d
00000100: aa86 cdbc 66c0 fa3c 1e60 2f3d 3961 02bc
00000110: c59b 7cbd a069 18bc 6c1d d9bc c18d 28bd
00000120: 0ef0 3f3c 2237 d83b c3ad fdbc a923 65bc
00000130: 55e1 b1bb 49af 00bb 5713 2c3b 9005 acbc
00000140: 2e63 0cbd 8bb6 9e3d 9530 af3a 11dc 5b3c
00000150: c3b2 0dbd b0ed 20bd 1218 013d 3ede 1b3a
00000160: 2a0e 19bd 8f1c 90bd ade0 0bbc 12ff b03c
00000170: c1aa 893d 8985 8abb c0b4 8a3c 0a9a d13c
00000180: 3dce d33c 85b9 bf3c 4f81 1bbd cd7e 653d
00000190: 06e7 be3a e030 1cbd 64c5 cb3c 56d4 9a3b
000001a0: 79cb 7e3c e81a 123d 9c40 f53c a35d 4c3d
000001b0: 6fd0 1e3c f8dc 923c 2f4a 6a3c 7d09 37bc
000001c0: 0942 813c b619 003d 1a3d 8b3d f4b3 8f3d
000001d0: 12aa 913d 1749 2abc 3529 5ebc 520c 21bc
000001e0: 9355 e23c 6a76 b1bb 784e de3c 5a21 163d
000001f0: 0f33 ba3c 0326 403c cb1a 4ebd ba74 f9bc
00000200: d1aa 883a 827f 62bb 386b cd3a 89f0 1fbc
00000210: b465 fc3b b3fd 9e3a 79d9 81bd b7eb c9bd
00000220: 121c ac3d cc36 8fbc ac42 2cbd 7623 6ebc
00000230: ec48 073d 7b2d 343b e057 72bd 874a b9bc
00000240: a062 943c e50f 053d 0cf1 75bc e577 7ebd
00000250: 32a3 1fbd 7c25 463d fe06 363c 7bae 79bd
00000260: f00a 62bd 0096 993b f13c 8cbc 83bd b7bd
00000270: 6bad 203d c870 df3c 6d53 4d3d acb3 443d
00000280: b215 233a fd3f 723c 1204 00bd d246 2ebc
00000290: e5ae 043c c904 f1bc f99f 74bb 1308 90bc
000002a0: cf3a 563b a747 3f3d c8e6 3c3d fb35 533d
000002b0: eebd f23c 8d6d 96bd 467c 523d f422 e03c
000002c0: 84af 733d 3647 bbbc bfd2 12bd c3f9 163d
000002d0: 9882 673c 0233 8f3c 6c83 e7bc b872 87bc
000002e0: 3f7c 3bbc 8a8f 9fbc 5d36 863c 570b faba
000002f0: cc8a 0bbd 83ab abbc 2e3d 463d e732 703b
00000300: 5755 7abc 4fcf af3c 80d1 9f3d 2339 62bd
00000310: c8da 57bb 5398 673d 1d1b 8e3c c0f2 9c3d
00000320: e19b 403d e515 8bbc ec3f 1ebd 598e d4b9
00000330: d129 8bbc 6efa 1c3d b5fe e43c 530f 9cbd
00000340: c8f3 5cbd 2502 c33c bcdc b43b a4fc 683c
00000350: 5cfd e6bc 52c8 aebc df30 483c 6659 9dbd
00000360: 63c0 493c c972 dfbc 6064 b5bc 7b70 293d
00000370: 2689 4bbc 7d7b 553d 341a 71bc 8814 8ebc
00000380: 8ced eebc 2807 7d3c f240 8a3d 84fb 823b
00000390: 65b0 433d 97d3 a03d e93b 543d aab4 ac3c
000003a0: 128e 5c3b 2ed3 993d 316c 933c 48b5 ee3c
000003b0: 475b 25bd c5c6 033d b23b 43bd 446b 49bd
000003c0: 2447 55bd 265c a63d 0a3b 62bd 6a67 853c
000003d0: 401f 133c 02d5 193c e88e 033c 2b70 7ebc
000003e0: 81ca 7d3d b3d1 5d3b aec4 a43b 0bd8 ae3d
000003f0: f97a 8c3d a248 84bd 68da 993a dc01 d83c
0.0791142 0.050827898 0.012329726 0.0437721 0.017223766 0.016800249 -0.018281206 0.029821113
-0.013860013 -0.06747806 -0.0920293 -0.07544869 -0.03095991 -0.036202915 -0.0078017474 0.0027180898
0.06297664 -0.03067774 -0.008278464 -0.02823059 -0.04700227 -0.0017322524 0.01277024 -0.05268055
-0.00601269 0.041987002 -0.04848349 -0.046350107 0.08863671 -0.076196685 0.032878183 -0.04592077
0.07272197 0.016242187 0.01836874 -0.018396989 0.085946865 0.00596875 -0.0024002942 -0.023522917
-0.0050515765 -0.0035831197 0.059962083 0.019435031 0.01649985 0.050167974 0.005714019 -0.040760174
-0.0060157785 0.034658547 -0.08389833 0.0008310887 -0.08284348 -0.025516795 -0.05582381 -0.005258984
-0.012865265 0.030765172 0.05051179 0.012021502 -0.02365091 -0.0050429497 -0.016203523 0.033647034
-0.025088627 0.03060932 0.042816274 -0.00795775 -0.06167199 -0.009302527 -0.026503287 -0.041150812
0.011714948 0.006598369 -0.030966645 -0.013985553 -0.005428473 -0.0019635728 0.0026256645 -0.020998746
-0.034274273 0.07749661 0.0013365919 0.013419167 -0.03459431 -0.039289176 0.031517096 0.00059458974
-0.037367024 -0.07036697 -0.008537454 0.021606002 0.06722022 -0.0042273444 0.016931891 0.025586147
0.025855178 0.023403892 -0.037965115 0.05602913 0.00145647 -0.03813255 0.024874397 0.0047250194
0.015551441 0.03567019 0.029938035 0.049893986 0.009693249 0.017927632 0.014299913 -0.011171696
0.015778558 0.03127452 0.067987636 0.07016745 0.071125165 -0.010393403 -0.013559629 -0.009829598
0.027628696 -0.0054157274 0.027137026 0.0366529 0.022729425 0.011727813 -0.05031852 -0.030451167
0.0010426884 -0.0034560864 0.0015672212 -0.009761938 0.0077025536 0.0012130052 -0.06340308 -0.09859412
0.084037915 -0.017482184 -0.04205577 -0.014534822 0.033028528 0.0027492929 -0.059165835 -0.022618545
0.018113434 0.03248586 -0.015011083 -0.06212606 -0.038973995 0.04837559 0.0111100655 -0.060957413
-0.055186212 0.004687071 -0.017118903 -0.08971693 0.039227884 0.027275458 0.05012839 0.04802291
0.00062211894 0.014785764 -0.03125388 -0.010637002 0.008098339 -0.029421227 -0.0037326796 -0.017581975
0.0032688861 0.046699192 0.046118528 0.05156515 0.029631581 -0.07345114 0.051388048 0.027360417
0.059493557 -0.022861104 -0.035845514 0.036859285 0.014130257 0.017480377 -0.028260909 -0.016534194
-0.011443197 -0.019477624 0.016383344 -0.0019076866 -0.034067914 -0.020955807 0.04839819 0.0036651434
-0.015279136 0.021461157 0.07803631 -0.05523027 -0.00329368 0.056541752 0.017346913 0.076634884
0.047023658 -0.016978214 -0.03863518 -0.00040541848 -0.016987713 0.038324766 0.027953485 -0.0762011
-0.053943425 0.023804734 0.0055194777 0.0142203905 -0.028196983 -0.021335755 0.012218683 -0.07683067
0.012313935 -0.027276414 -0.02214259 0.041367035 -0.012422835 0.05211972 -0.01471572 -0.017343774
-0.029166006 0.015443601 0.067506686 0.003997268 0.047775645 0.078528576 0.051814947 0.021082241
0.0033654016 0.075109825 0.017995926 0.029139176 -0.040370252 0.032171983 -0.04766435 -0.049174562
-0.052069798 0.08123045 -0.055232085 0.016284663 0.008979619 0.009389164 0.008029677 -0.015529673
0.0619607 0.0033846914 0.005028329 0.08537301 0.06859393 -0.06459166 0.0011738064 0.026368074

weight f4 [100]
00000000: 8e21 813f 01fc 863f c675 8c3f 4ffc 813f
00000010: 8f08 843f 24c2 883f d8fd 883f 6f57 863f
00000020: 479e 7f3f f2e0 893f b067 833f 1af3 843f
00000030: 0708 823f 9ea2 883f 00e2 803f f744 833f
00000040: ac43 8d3f 51e6 843f 5b55 963f 4fe3 883f
00000050: 228b 813f 2d8a 7b3f 1b52 863f 9d3c 903f
00000060: 175f 833f 6fd4 9b3f 6d58 7c3f beb2 8f3f
00000070: f3da 8e3f b9ee 983f 06e1 903f 4583 993f
00000080: 645c 9f3f e9af 853f 54ec 953f 364c 853f
00000090: 7257 873f 1804 863f 9cde 973f a2f6 8d3f
000000a0: d053 843f a751 963f 93e6 853f af75 883f
000000b0: 45a2 813f 5159 8c3f e87f 823f f4dd 883f
000000c0: ab0c 833f a6f2 a43f 212d 9f3f 0551 853f
000000d0: 1654 8f3f 83ad 893f bb04 863f 2b86 883f
000000e0: 43d3 be3f 3c22 903f 84c1 893f abb9 8e3f
000000f0: 2847 8b3f 0ba3 7a3f 845c 7e3f ada5 7c3f
00000100: 43af 8b3f b3b1 823f de1a 943f c7dd 793f
00000110: 6070 893f 91d5 b13f c13d 803f ed29 883f
00000120: 3977 983f 824d 883f 2488 863f cb29 a73f
00000130: db93 ba3f c805 853f cf31 833f f688 863f
00000140: 63fc 933f 8187 803f 7f59 843f 1dc5 8d3f
00000150: 22e6 873f df2e a03f c57d 823f ccd7 9e3f
00000160: 783d 873f 3705 a23f 186d 963f 0a6b 863f
00000170: 2a73 8c3f 4899 843f c576 913f 7471 8c3f
00000180: 0551 843f 3172 823f f8e8 843f 0498 803f
1.0088365 1.0545655 1.0973442 1.0155123 1.0315112 1.0684247 1.0702467 1.0495433
0.9985089 1.0771773 1.0266018 1.0386689 1.01587 1.0674627 1.006897 1.0255421
1.1036277 1.0382787 1.1744798 1.0694369 1.0120585 0.98257715 1.0493807 1.1268498
1.0263394 1.2174205 0.9857243 1.1226423 1.1160568 1.1947852 1.1318672 1.1993185
1.245007 1.0444309 1.1712747 1.0413883 1.0573561 1.0469999 1.186481 1.1090891
1.0338078 1.1743668 1.0460991 1.0660914 1.0127646 1.0964757 1.0195284 1.0692735
1.0238241 1.288655 1.2435647 1.041535 1.1197536 1.0756077 1.0470194 1.0665945
1.4908222 1.1260448 1.0762181 1.1150411 1.088109 0.97905034 0.9935992 0.986903
1.0912861 1.021048 1.1570699 0.9760403 1.0737419 1.38933 1.0018846 1.0637795
1.1911384 1.0648654 1.0510297 1.3059629 1.4576372 1.0392389 1.0249575 1.0510547
1.1561397 1.0041353 1.0339812 1.1075779 1.0617106 1.2514304 1.0194632 1.2409606
1.0565634 1.2657841 1.1752043 1.0501416 1.0972645 1.0359278 1.136437 1.0972123
1.0337225 1.0191098 1.0383596 1.0046391

bias f4 [100]
00000000: fcd0 b0bd 7efa ca3d 299f b7bd 6890 a93d
00000010: 6353 99bd 2a6c c23d a4c2 0cbe 9910 c23d
00000020: 7123 873d 8241 213e 3ae9 bf3d dd7f d73d
00000030: 6ceb 95bd 6986 fc3d 2dba 65bd 0da9 b03d
00000040: 8fad f53d 38a5 c43d f10f 5dbe 6666 cebd
00000050: 93aa 8cbd 676b b63d 67ec f83d 22d9 c5bd
00000060: 7696 b73d b8bd 833e 1adc 8a3c 5cff d0bd
00000070: bbf5 ecbd c5bc c63d 11e1 e2bd 85ff e0bd
00000080: 3c99 493e d8f7 90bd 3cc3 44be 442c 99bd
00000090: b439 0b3e 67a2 c53d aaa4 4c3e 959d 24be
000000a0: 2907 98bd b6e7 0bbe 7d52 cb3d 3c15 d0bd
000000b0: 3dff 1fbd beb3 eb3d ea9c bcbd d891 fbbd
000000c0: f5cc 90bd d843 6e3e 3759 2dbe 601d c2bd
000000d0: ce97 0ebe 0e77 d4bd 40c5 053e e968 b8bd
000000e0: 2f7b cf3e 8851 febd b452 bcbd 4692 c3bd
000000f0: 47d9 f3bd 8b19 f43c efc6 ad3d da39 5c3b
00000100: ce12 babd 7742 80bd 5ba5 e3bd d7c1 c93c
00000110: 8c2c 813d d613 883e a683 4cbd 76fe 763d
00000120: 6528 2e3e b177 e2bd 1b5f df3d e407 763e
00000130: c4bc b1be 2640 c73d ffad 733d e828 d13d
00000140: a08c c2bd e99c 54bd 489b 9abd d2c1 1fbe
00000150: f13c d13d c41e debd 0456 a03d 2a50 503e
00000160: aa8f 9ebd aa5c 24be 5dab ecbd 04eb bf3d
00000170: 51e0 2a3e ba64 d13d ccb6 dabd a586 db3d
00000180: ef18 f73d cadf 8cbd 2ff9 cb3d 86db 953d
-0.086336106 0.09911059 -0.08965904 0.082794964 -0.07486608 0.09493287 -0.13746125 0.09475822
0.06598557 0.15747645 0.09370656 0.10522435 -0.07320294 0.12330324 -0.056085754 0.08625994
0.11995994 0.096018255 -0.21588112 -0.10078125 -0.06868472 0.08907204 0.12154465 -0.096605554
0.08964245 0.2573068 0.016950656 -0.10204956 -0.11570307 0.09703974 -0.11078084 -0.109862365
0.1968736 -0.070785224 -0.19215101 -0.07479146 0.13596231 0.096501164 0.1998469 -0.16075738
-0.07423241 -0.1366261 0.09927843 -0.101603 -0.039061774 0.115088925 -0.092096165 -0.12283677
-0.070703425 0.23268068 -0.16928564 -0.09478259 -0.13925096 -0.103742704 0.13063526 -0.09004385
0.4052367 -0.124178946 -0.09195462 -0.09549384 -0.11906677 0.029797336 0.08485209 0.0033603818
-0.09085618 -0.06262677 -0.111155234 0.024628563 0.06307325 0.26577634 -0.049930237 0.060301267
0.17007597 -0.110579856 0.10906812 0.24026448 -0.3471433 0.09729032 0.059492107 0.102128804
-0.09499478 -0.051907454 -0.07549149 -0.1560128 0.10216702 -0.10845712 0.07828906 0.2034308
-0.077422455 -0.16050974 -0.115561225 0.093709975 0.16687132 0.1022429 -0.10679397 0.10719041
0.120653026 -0.06878622 0.099596374 0.073172614
