autogluon_models/models/NeuralNetFastAI_BAG_L2/S1F2/model-internals.pkl (torch, 874449 bytes, 17 tensors)

weight f4 [506, 52]
0	0x3cb714a4	0.02234871
1	0xbc56e37e	-0.013115762
2	0xbd153579	-0.03642795
3	0x3cbdb856	0.023159187
4	0x3d2d3fcc	0.04229717
5	0x3d6709fb	0.056406002
6	0x3c353202	0.011059286
7	0xbd828e01	-0.06374741
8	0xbd8741f1	-0.06604374
9	0xbc8e358d	-0.01735952
10	0xbd90f712	-0.07078375
11	0x3cd5ca4f	0.026097445
12	0xbd8b3a50	-0.067982316
13	0x3bb30fb0	0.0054645166
14	0xbd66a1be	-0.056306593
15	0x3d86e915	0.065874256
16	0x3d7c73b9	0.0616338
17	0xbcd28b9a	-0.025701333
18	0xbce280d7	-0.027649326
19	0xbda87be7	-0.082267575
20	0xbd5e34b4	-0.05424948
21	0x3c8dc1a4	0.01730425
22	0x3c706bd7	0.0146741485
23	0xbda34369	-0.07971842
24	0x3d406cb2	0.04697866
25	0xbdced5a0	-0.100993395
26	0xbda8a9df	-0.08235525
27	0x3d1ae82f	0.037819084
28	0xbcc77ec4	-0.024352439
29	0xbd39f8e6	-0.045403384
30	0x3c9add8c	0.01890447
31	0x3d447fa8	0.047973305
32	0x3c1e58bd	0.009664712
33	0x3c943853	0.018093264
34	0xbd6206a8	-0.05518213
35	0x3bd560c0	0.0065117776
36	0x3cf8d99a	0.030377198
37	0x3cf6d514	0.0301309
38	0x3d169358	0.03676161
39	0x3c987d46	0.018614423
40	0x3d8bceb9	0.068265386
41	0x3cc40ca3	0.023931807
42	0xbd3bb767	-0.045829203
43	0x3d24b07d	0.040207375
44	0x3bf4f7d1	0.007475831
45	0x3d58a632	0.05289287
46	0x3ce25b65	0.027631471
47	0xbcab5360	-0.02091378
48	0xbb73cce3	-0.003720098
49	0x3d265c4c	0.040615365
50	0xbbd8f57a	-0.00662106
51	0xbd38835b	-0.045047145
52	0xbc14e08e	-0.009086741
53	0xba8fed80	-0.0010980815
54	0xbc30789b	-0.010770942
55	0xbb023f7d	-0.0019874268
56	0xba742c8a	-0.0009314498
57	0xba11188d	-0.00055349694
58	0xb988769d	-0.00026028315
59	0xbbea23ee	-0.0071453964
60	0xbc5eb3b5	-0.01359265
61	0xbc12c124	-0.008957181
62	0x3b5399b5	0.0032287661
63	0x3c10466b	0.008805851
64	0x3c708e9f	0.014682441
65	0x3b65a74a	0.003504234
66	0x3a902056	0.0010995965
67	0xbc208e70	-0.009799585
68	0xbc03e729	-0.008050718
69	0x3c61d052	0.013782578
70	0xbc1f2737	-0.009713939
71	0x3aed5162	0.0018105919
72	0x3c19479b	0.009355451
73	0x3c6d6ff4	0.014492024
74	0xba0249ef	-0.00049701234
75	0xbb7a387b	-0.0038180638
76	0x3afbea4d	0.0019219607
77	0xbb05d3cf	-0.0020420437
78	0x3c279208	0.010227688
79	0xbc7099e3	-0.014685127
80	0x39853588	0.0002540762
81	0x3b2773f7	0.0025551298
82	0x3b3b543e	0.0028584148
83	0x3a22bd77	0.0006208042
84	0x3c30c903	0.010790112
85	0x3bbd48e1	0.00577651
86	0xbc2ab754	-0.010419685
87	0x3c2c6e18	0.010524295
88	0xbbf5b7f8	-0.0074987374
89	0x39f69f9c	0.00047039695
90	0xbc33b686	-0.01096881
91	0xbb0952d6	-0.0020953915
92	0x3b683be6	0.0035436093
93	0xbb682eb0	-0.0035428219
94	0xbb722a04	-0.0036951313
95	0xbb1a6889	-0.0023560843
96	0x3bb9dc03	0.0056719794
97	0x3b30d871	0.0026984478
98	0x3bf045f0	0.007332556
99	0xbc32b275	-0.010906805
100	0xbbbb099c	-0.0057079326
101	0xbb67711c	-0.0035315221
102	0x3b8ec456	0.004356901
103	0x3c087928	0.008329667
104	0xbb6309fa	-0.0034643398
105	0x3b42b625	0.0029710617
106	0xbb935d71	-0.004497223
107	0xb8211e8d	-3.8413844e-05
108	0x3c214460	0.009842962
109	0x3c109969	0.008825638
110	0xbb3bb1ab	-0.0028639834
111	0x3a8e8b4f	0.0010875257
112	0x3a586fee	0.0008256425
113	0xbb3b5148	-0.0028582383
114	0x3b860def	0.0040910165
115	0xbbbdc3a7	-0.005791146
116	0x3baa22c3	0.005192132
117	0xbc0b9632	-0.008519696
118	0xbc6a7c87	-0.014311916
119	0x3ae06557	0.0017120045
120	0xbab766f8	-0.0013992479
121	0x3b1ef103	0.002425254
122	0x3a4d2a40	0.0007826425
123	0xbc20df29	-0.0098188305
124	0xba460b93	-0.0007554825
125	0x3be5075b	0.006989402
126	0x39ca3ebb	0.0003857518
127	0xbb5ea984	-0.003397555
128	0x3bc3ee43	0.0059793307
129	0xbb6b66e9	-0.0035919494
130	0xbbc4dc69	-0.0060077203
131	0xbc2f884f	-0.010713651
132	0xbbf71756	-0.0075406237
133	0xba45d9fe	-0.0007547437
134	0xbb2a2f40	-0.0025968105
135	0x3c0e2c80	0.008677602
136	0x3b3b14d0	0.002854634
137	0x3c15f283	0.009152058
138	0xbbc9b3c1	-0.0061554615
139	0x39bcd3f0	0.0003601606
140	0xbbc4ee2e	-0.0060098385
141	0x3b876cea	0.0041328566
142	0xbb9cb8bd	-0.0047827647
143	0x3b3d7f1c	0.0028914874
144	0x3c4613a9	0.012089648
145	0xb9a1f330	-0.00030889502
146	0xbc73b88b	-0.014875541
147	0x3b66b017	0.0035200173
148	0xbb0f381c	-0.0021853512
149	0x3adf4edb	0.001703705
150	0x390d0647	0.00013449146
151	0xbc314ad1	-0.01082106
152	0xbb96549e	-0.004587724
153	0xbc2bd3c4	-0.010487501
154	0xbb66b266	-0.0035201549
155	0x3c546c03	0.012965205
156	0xbc2c5c39	-0.0105200345
157	0xbbf857a6	-0.007578808
158	0xbc07c16e	-0.008285863
159	0xb977263b	-0.00023569998
160	0xbc227422	-0.0099153835
161	0xba5055e0	-0.00079473667
162	0xbbc5af4e	-0.006032861
163	0xb9080376	-0.0001297126
164	0xbc3476ba	-0.011014635
165	0x3b7ed65e	0.0038885097
166	0xbbe488b6	-0.006974305
167	0xbbb7f946	-0.0056144325
168	0xbc6ce73c	-0.014459427
169	0x39b713c9	0.0003491922
170	0x3b8f3dae	0.0043713665
171	0x3ac93997	0.0015352246
172	0x3bf5aac4	0.0074971635
173	0x3bceb79a	0.006308508
174	0x3c25aeb4	0.010112453
175	0xbc732c9e	-0.014842181
176	0x3bb09bf0	0.005389683
177	0x3ba55f35	0.00504675
178	0xbb837fe7	-0.00401305
179	0x3b68f3ab	0.0035545628
180	0x39b9eb15	0.000354611
181	0x3b3b59d0	0.0028587468
182	0xba52e034	-0.0008044273
183	0xbbf5c7e0	-0.0075006336
184	0x3c582568	0.013192512
185	0x3bc8971e	0.00612153
186	0xbc0859d8	-0.008322202
187	0x3bf1752c	0.0073687043
188	0xbb6c6160	-0.0036068782
189	0xbbe624cc	-0.0070234295
190	0xbb0564e7	-0.0020354332
191	0xbb706f18	-0.003668731
192	0x3c3f170a	0.011663208
193	0x3a0f9621	0.0005477388
194	0x3b8fb65c	0.0043857526
195	0x3a17c691	0.00057897816
196	0x3ab89893	0.0014083557
197	0x3a0d559e	0.0005391481
198	0x3b891d72	0.0041844184
199	0xbc01cb5c	-0.00792202
200	0x3b44c655	0.0030025442
201	0x3b162552	0.0022910428
202	0x3be8cd4e	0.0071045524
203	0xbba63b39	-0.005072978
204	0x3c0d3f0d	0.0086209895
205	0xbb9b5d0c	-0.0047413167
206	0xbc2b3db1	-0.01045172
207	0xbb4a700f	-0.0030889546
208	0x3c2af860	0.010435194
209	0xbc23d199	-0.009998702
210	0xbb938621	-0.0045020734
211	0x3c27e5e8	0.010247685
212	0xbb6de881	-0.0036301913
213	0x3b760f2e	0.003754567
214	0x3aa31807	0.0012443074
215	0xbb1657de	-0.0022940557
216	0xbc0276ee	-0.007962925
217	0x3b13c6f0	0.0022548996
218	0x3bbe1dec	0.005801907
219	0x3bfacf86	0.0076541333
220	0xbc49d3f6	-0.012318602
221	0xbc0dee31	-0.008662746
222	0x3b5c29f7	0.003359435
223	0xbb837ce7	-0.0040126923
224	0xbbe8169a	-0.0070827724
225	0xbae6ce36	-0.0017609063
226	0xba90fa5f	-0.0011060945
227	0xbb360906	-0.0027776374
228	0x3a79fa4d	0.0009535894
229	0xbbe7e153	-0.0070764213
230	0x3b8d57b5	0.004313434
231	0x3b9d6a58	0.004803937
232	0xbb8c4bd2	-0.0042814994
233	0x3abdedf2	0.0014490469
234	0xbc05200b	-0.008125315
235	0x3ad8f2f0	0.0016551893
236	0x3c402b9e	0.011729149
237	0x3a6000a0	0.0008545015
238	0x3b6e2644	0.0036338726
239	0xbb44aac2	-0.0030009006
240	0x3b308f68	0.0026940946
241	0x3b99d27c	0.004694281
242	0xbc68c31e	-0.014206676
243	0x3c6719f5	0.01410531
244	0xbaaccef1	-0.0013184232
245	0xb8c3c69b	-9.335318e-05
246	0xbb69d86d	-0.0035681978
247	0x3bd5828a	0.0065158056
248	0x3c13fe78	0.009032838
249	0xbad2a3c4	-0.0016070534
250	0xbc6d00f6	-0.014465561
251	0xbbb48271	-0.005508714
252	0xbb6170bd	-0.0034399473
253	0x3b7c9b53	0.003854473
254	0xbc57d6ac	-0.01317374
255	0x3bb5af1e	0.0055445572

weight f4 [65]
0	0x3f82d4f8	1.0221243
1	0x3f814e9f	1.0102118
2	0x3f93411c	1.1504245
3	0x3faac85b	1.3342394
4	0x3f5af6b7	0.85532707
5	0x3f6d0013	0.9257824
6	0x3f959d21	1.1688577
7	0x3f67f1be	0.90603244
8	0x3f825c50	1.0184422
9	0x3f694345	0.9111827
10	0x3f711f45	0.9418834
11	0x3f725e10	0.9467478
12	0x3f720e8f	0.94553465
13	0x3f7ea8ca	0.994763
14	0x3f6c3ec5	0.9228328
15	0x3f77a3ec	0.967345
16	0x3f98c531	1.1935178
17	0x3f8310c5	1.0239493
18	0x3f883726	1.064183
19	0x3f7573cc	0.95879817
20	0x3f74cc4c	0.9562423
21	0x3f52a48f	0.82282346
22	0x3f85fbb5	1.046744
23	0x3f53894d	0.8263138
24	0x3f820152	1.0156653
25	0x3f8ff258	1.1245832
26	0x3f8ab7f3	1.0837387
27	0x3f598ec4	0.8498347
28	0x3f52dd6c	0.8236911
29	0x3f7fa40a	0.9985968
30	0x3f8dafd8	1.1069288
31	0x3f95870c	1.1681838
32	0x3f8e46ee	1.1115396
33	0x3f4d814e	0.8027543
34	0x3f7cf831	0.9881621
35	0x3f6185aa	0.8809458
36	0x3f9f9942	1.2468646
37	0x3f7ada32	0.9798919
38	0x3f70d199	0.9406982
39	0x3f90ca97	1.1311826
40	0x3f67da00	0.90567017
41	0x3f81f349	1.015237
42	0x3f7f6739	0.9976688
43	0x3f7a22f0	0.9770956
44	0x3f8d5fa7	1.1044816
45	0x3f76158f	0.96126646
46	0x3f84886f	1.0354136
47	0x3fa08ba9	1.2542621
48	0x3fa4039e	1.2813604
49	0x3f6a2c2c	0.9147365
50	0x3fae8fed	1.3637673
51	0x3fb567e1	1.4172326
52	0x3fad5d56	1.3544109
53	0x3fb26368	1.3936586
54	0x3fac2f2f	1.3451899
55	0x3fade2ea	1.3584874
56	0x3fb1e891	1.3899099
57	0x3fb29625	1.395207
58	0x3fb1c78b	1.3889021
59	0x3fb32f16	1.3998744
60	0x3fb15a0f	1.3855609
61	0x3f9f461a	1.2443268
62	0x3fb23d4f	1.392496
63	0x3fb3434e	1.4004915
64	0x3f9a486d	1.2053353

bias f4 [65]
0	0xbea2d419	-0.31802443
1	0xbe15a05c	-0.14611953
2	0x3d8421a4	0.06451729
3	0xbd247147	-0.040147092
4	0x3d73498c	0.05939631
5	0x3e2f869c	0.17141193
6	0x3e68cce8	0.22734416
7	0x3e6b9aa1	0.23008205
8	0xbd1fdddb	-0.039029937
9	0xbcf409ea	-0.029789884
10	0x3c8a1803	0.016857153
11	0x3db21ea9	0.08697254
12	0xbe84e0f9	-0.2595289
13	0x3d313587	0.04326394
14	0xbe27b2c6	-0.1637679
15	0xbd36ef29	-0.044661675
16	0x3e27bbd9	0.16380252
17	0xbb0448d0	-0.0020185001
18	0xbdb3801f	-0.087646715
19	0xbe52f504	-0.20601279
20	0xbe4a3fe7	-0.1975094
21	0xbd14a5cd	-0.036290932
22	0x3dfacdbd	0.12246273
23	0x3dda33e6	0.1065443
24	0xbd8d9484	-0.06913093
25	0x3e32ff87	0.17480288
26	0x3e48d61c	0.19612926
27	0xbd85f619	-0.0654108
28	0xbdf37bd9	-0.118888564
29	0xbd7f5aa9	-0.06234232
30	0x3df0e10c	0.11761674
31	0xbc751621	-0.014958889
32	0x3e00b993	0.12570791
33	0xbdc85897	-0.09782522
34	0x3dccac72	0.09993829
35	0xbc83ebdb	-0.016103676
36	0xbd3a13f3	-0.04542918
37	0x3e08f12e	0.13373253
38	0xbdaec412	-0.08533491
39	0xbb80fc41	-0.003936321
40	0x3d856bad	0.06514678
41	0x3e526129	0.20544876
42	0x3d982cfc	0.07430455
43	0x3db8ea10	0.09029019
44	0x3e0bffa6	0.13671741
45	0x3e3693b5	0.17829783
46	0x3e51735b	0.20454161
47	0x3de6f412	0.112770215
48	0x3cb04a73	0.021519875
49	0xbe2abe09	-0.16674055
50	0x3b79543b	0.003804459
51	0x3dc12fd7	0.09432953
52	0xbdb611f4	-0.08890143
53	0xbdf15935	-0.11784593
54	0xbd90697e	-0.07051371
55	0xbe157cfd	-0.1459846
56	0xbc7d2e8a	-0.01545299
57	0xbe0f10c5	-0.13971241
58	0xbb20838c	-0.002449247
59	0xbbf645b0	-0.0075156316
60	0x3d4fe5cc	0.05075626
61	0xbc74ed56	-0.014949163
62	0x3e1ab9fa	0.15110007
63	0xbdc01653	-0.09379258
64	0xbda8ce67	-0.08242493

running_mean f4 [65]
0	0x3bc63fc8	0.006050084
1	0x3ca2765f	0.019831834
2	0xbc8ca70d	-0.0171695
3	0xbc04ce71	-0.00810586
4	0x3c0b09b2	0.008486198
5	0x3ce057fd	0.027385706
6	0x3cd4a3b9	0.025956975
7	0x3bbe9cd9	0.0058170375
8	0xbc238890	-0.0099812895
9	0x3bf2bd14	0.007407794
10	0x3b767fb7	0.0037612745
11	0x3bfd9595	0.007738779
12	0x3bb82d1a	0.005620611
13	0x3c21b934	0.009870816
14	0x3b047cdb	0.0020216021
15	0xbb71c79b	-0.0036892656
16	0x3c107a6e	0.008818252
17	0x3cd04555	0.025423685
18	0x3c2d12e2	0.010563584
19	0x3c6a625a	0.014305675
20	0xbb8baf07	-0.0042628082
21	0xbbe3c382	-0.0069507966
22	0xbc48936c	-0.012242179
23	0xbc89a692	-0.01680306
24	0xbd051854	-0.032493904
25	0xb95d66ca	-0.00021114494
26	0xbbb162f7	-0.005413409
27	0xbc54493a	-0.012956912
28	0xbc5e4d36	-0.013568213
29	0x3bcffc34	0.0063472036
30	0xbc0961a8	-0.0083850995
31	0xbc3614e0	-0.011113375
32	0xbc91e0cd	-0.017807389
33	0xbb85c646	-0.004082474
34	0xbc3ac86f	-0.011400326
35	0xbb758618	-0.003746396
36	0xbc93a274	-0.0180218
37	0xbc0b27f9	-0.008493417
38	0xbab4e9a8	-0.0013802545
39	0x3c4b504b	0.01240928
40	0x3c1ee30c	0.009697687
41	0xbb81db4c	-0.00396291
42	0xbc03a05d	-0.008033839
43	0xbc6bb5e1	-0.014386625
44	0xbb852011	-0.0040626605
45	0x3b01663d	0.0019744777
46	0xbbd6c7f1	-0.0065545966
47	0xbc959a59	-0.018262075
48	0xbbf26567	-0.007397342
49	0xbca9a24c	-0.020707272
50	0xbc0aba3f	-0.008467256
51	0xbc0a63c1	-0.008446635
52	0xbbf83ed6	-0.00757585
53	0xbbfd9308	-0.0077384748
54	0xbc00f0bb	-0.007869895
55	0xbbfe234a	-0.0077556716
56	0xbbfeb743	-0.0077733113
57	0xbbff53f9	-0.0077919927
58	0xbbfef636	-0.0077808155
59	0xbbff0bea	-0.0077834027
60	0xbbfe3650	-0.0077579394
61	0xbbee8865	-0.007279443
62	0xbbfd930b	-0.007738476
63	0xbbfe8e86	-0.007768455
64	0xbbfdcb4f	-0.0077451835

running_var f4 [65]
0	0x3f87437e	1.0567472
1	0x3f88d3aa	1.0689595
2	0x3f2d9fa0	0.67821693
3	0x3f80f101	1.0073549
4	0x3f7b7959	0.98232037
5	0x3f7f8158	0.9980674
6	0x3f7a8f3d	0.97874814
7	0x3f6d83d8	0.927793
8	0x3f76227b	0.96146363
9	0x3f952093	1.1650566
10	0x3f964bcb	1.174188
11	0x3f8a35ee	1.0797708
12	0x3f502c5c	0.8131769
13	0x3f7b4e2b	0.9816615
14	0x3fac159f	1.3444098
15	0x3f7429ea	0.95376456
16	0x3fd527d6	1.6652782
17	0x3f89a025	1.0751997
18	0x3faf9055	1.3715922
19	0x3fc2a664	1.5207028
20	0x3f7f0a6c	0.9962528
21	0x3f814390	1.0098743
22	0x3f0d225e	0.55130565
23	0x3ebf23e2	0.37332064
24	0x3f889bac	1.0672507
25	0x3f7f3e01	0.99703985
26	0x3f7f895d	0.99818975
27	0x3f7e0b70	0.992362
28	0x3f7c140f	0.98468107
29	0x3f7f2051	0.99658686
30	0x3f7b6f48	0.98216677
31	0x3f729062	0.9475156
32	0x3f7e361b	0.9930131
33	0x3f4725ae	0.7779187
34	0x3eed128b	0.4630321
35	0x3f7a7689	0.9783712
36	0x3f7edaca	0.99552596
37	0x3f7f63e0	0.9976177
38	0x3f7f8c00	0.99823
39	0x3f846315	1.0342737
40	0x3f82f924	1.0232282
41	0x3f7f17bc	0.9964559
42	0x3f733e13	0.9501659
43	0x3f7fd7a6	0.9993843
44	0x3faa3173	1.3296341
45	0x400b9e5a	2.18154
46	0x3eb88487	0.3603861
47	0x3f2459de	0.64199626
48	0x3ea09d0e	0.31369823
49	0x3efad57f	0.4899101
50	0x3f802ac7	1.0013055
51	0x3f802ea7	1.0014237
52	0x3f804722	1.0021708
53	0x3f8050c2	1.0024645
54	0x3f80479d	1.0021855
55	0x3f804761	1.0021783
56	0x3f80528f	1.0025195
57	0x3f804652	1.002146
58	0x3f8047a3	1.0021862
59	0x3f8051fb	1.0025018
60	0x3f805194	1.0024896
61	0x3f804cae	1.0023401
62	0x3f8050c1	1.0024644
63	0x3f80527c	1.0025172
64	0x3f8048e4	1.0022244

weight f4 [200, 117]
0	0xbd784158	-0.06060919
1	0xbd2ae3a2	-0.041720994
2	0xbce681d5	-0.02813808
3	0x3d5c2ebc	0.053755507
4	0x3dc1f43e	0.094704136
5	0xbb007a60	-0.0019604191
6	0x3c77f647	0.015134401
7	0xbdae406f	-0.085083835
8	0x3db9b0a8	0.09066898
9	0xbdd01446	-0.10160117
10	0xbd532603	-0.051549923
11	0x3dc01305	0.09378628
12	0xbd50c6c6	-0.050970815
13	0xbdbf56c2	-0.093427196
14	0xbc037f00	-0.008025885
15	0xbd898691	-0.0671512
16	0x3d8e208d	0.06939802
17	0x3d58271b	0.05277167
18	0x3d6b4905	0.057442684
19	0x3da73723	0.08164813
20	0xbc7ff520	-0.015622407
21	0x3cb598e3	0.022167629
22	0x3d4ca4de	0.049961917
23	0x3c14a25b	0.009071912
24	0x3dc627d6	0.09675567
25	0xbd2b6d72	-0.041852422
26	0xbc1e972a	-0.009679595
27	0xbcfe6329	-0.031053143
28	0xbd4a3ff1	-0.049377386
29	0xbda69930	-0.08134687
30	0xbd41697a	-0.04721973
31	0x3da6b466	0.08139877
32	0x3ba5a50f	0.005055077
33	0xbc9f7116	-0.019463103
34	0xbc64e7a0	-0.013971239
35	0x3d985840	0.07438707
36	0xbaeb5e1e	-0.0017957126
37	0x3cb0515d	0.021523172
38	0x3d718948	0.058968812
39	0xbce085ee	-0.027407613
40	0x3b0750a8	0.002064744
41	0xbc670caa	-0.01410214
42	0xbd3a01e5	-0.045411963
43	0xbd975821	-0.07389856
44	0xbb04d4a1	-0.0020268338
45	0x3d24c73c	0.040229067
46	0xbc9746b9	-0.01846634
47	0x3cfab8cc	0.030605696
48	0xbd979725	-0.074018754
49	0xbd425393	-0.047442984
50	0x3b73a42c	0.0037176711
51	0xbcc674f7	-0.024225695
52	0xbca220fe	-0.019791123
53	0x3d750733	0.05982132
54	0x3d636adf	0.055521842
55	0xbb3951e2	-0.0028277566
56	0xbc22e140	-0.009941399
57	0xbc03958e	-0.008031262
58	0xbc43986b	-0.011938195
59	0xbd90e3e0	-0.07074714
60	0x3d5794af	0.05263203
61	0x3d6a4adb	0.057200294
62	0xbc49e645	-0.012322967
63	0x3c45fc1f	0.012084036
64	0xbcd44064	-0.02590961
65	0x3df38cfa	0.118921235
66	0x3e0aaba3	0.13542037
67	0x3c619244	0.013767783
68	0x3d2be95b	0.041970592
69	0x3df125f7	0.11774819
70	0xbd46d673	-0.04854436
71	0x3c884f3a	0.01663934
72	0x3d8ddaed	0.069265224
73	0xbd42a067	-0.047516253
74	0xbe09b4fb	-0.13447945
75	0xbd320835	-0.043464858
76	0xbcf1665c	-0.029467754
77	0xbda22f75	-0.07919208
78	0x3b8444f9	0.0040365425
79	0x3cc83fef	0.024444548
80	0xbc271a07	-0.0101990765
81	0xbd93dceb	-0.07219871
82	0xbd687502	-0.056752212
83	0x3d7b050f	0.06128412
84	0xbdf4ddaf	-0.11956345
85	0x3dc9f53e	0.09861229
86	0xbddccff3	-0.10781851
87	0xbdc01ff7	-0.09381097
88	0xbd2bb95e	-0.041924827
89	0xbde6bf67	-0.11266976
90	0xbd0488ee	-0.03235715
91	0xbd948b7a	-0.072531655
92	0xbcf48f02	-0.029853348
93	0x3d328e06	0.043592475
94	0xbd196ab0	-0.03745526
95	0xbd927711	-0.07151616
96	0xbd687fd8	-0.056762546
97	0xbcd3ed8c	-0.025870107
98	0xbde5dff4	-0.11224356
99	0xbcd7f135	-0.026360134
100	0x3e19e3fc	0.15028375
101	0xbe0a588d	-0.13510342
102	0xbd9bddba	-0.0761065
103	0xbd0d402a	-0.03448502
104	0xbd7985c0	-0.06091857
105	0xbe07bc8c	-0.13255519
106	0xbd285b76	-0.04110285
107	0xbdf46739	-0.11933751
108	0xbe034689	-0.12819876
109	0xbd7cc429	-0.06171051
110	0xbdf38a7d	-0.11891649
111	0xbdcfa1b8	-0.10138267
112	0xbd8872c0	-0.06662512
113	0xbdacdbb9	-0.08440346
114	0xbd3e394e	-0.04644137
115	0xbde9c979	-0.11415381
116	0xbcbb0486	-0.022829305
117	0x3e0789e1	0.1323619
118	0xbdab618a	-0.083682135
119	0xbd637138	-0.055527896
120	0x3d3cef3d	0.046126593
121	0xbd738eca	-0.059462346
122	0xbe15aa5b	-0.14615767
123	0xbd607890	-0.054802477
124	0xbb88283c	-0.004155187
125	0xbdbc1baf	-0.09184968
126	0x3e383728	0.1798979
127	0xbd6ccc82	-0.05781222
128	0xbd9b2037	-0.07574504
129	0x3e267788	0.16256535
130	0x3e00eb20	0.12589693
131	0xbd3b0073	-0.045654725
132	0x3d30b0f5	0.04313751
133	0xbcb80a55	-0.022465864
134	0x3dd12b2d	0.10213313
135	0xbd3b11fb	-0.045671444
136	0xbcb45da0	-0.0220173
137	0xbdc40e06	-0.09572987
138	0x3e135477	0.1438769
139	0x3c6d0521	0.014466555
140	0xbdad92e4	-0.08475283
141	0x3c47193d	0.012152013
142	0xbd7e7a22	-0.062128194
143	0x3d34fd1e	0.044186704
144	0x3e0d8d63	0.13823466
145	0x3d28dc23	0.041225564
146	0x3d274edb	0.040846687
147	0x3e10352a	0.1408278
148	0xbcda495d	-0.02664631
149	0xbc866515	-0.016405622
150	0x39943f81	0.00028276074
151	0x3c997190	0.018730909
152	0xbd2460ad	-0.04013126
153	0x3db23d39	0.087030835
154	0x3de92759	0.11384458
155	0xbd30fc1f	-0.04320919
156	0x3d787a95	0.06066378
157	0x3d5c9e44	0.05386187
158	0x3ccd5b03	0.025067812
159	0x3cbf2a54	0.023335613
160	0x3b79792b	0.0038066607
161	0xbe2924fa	-0.16518012
162	0x3c1eb422	0.009686502
163	0xbc9b55bd	-0.018961782
164	0x3d8397f6	0.064254686
165	0x3e2437a8	0.16036856
166	0x3cc78fa7	0.024360491
167	0xbc34fdbf	-0.011046826
168	0x3d96f216	0.07370393
169	0xbd84f945	-0.06492857
170	0x3db6950e	0.08915149
171	0xbe027512	-0.12739971
172	0xbd92cc81	-0.07167912
173	0x3c506871	0.012720213
174	0x3e3489ef	0.17630742
175	0x3d3b3fba	0.04571507
176	0x3db729e2	0.089435354
177	0xbd8cc5c2	-0.06873657
178	0x3c0c0926	0.008547103
179	0x3dd0cbbf	0.101951115
180	0x3d9aa0d7	0.07550209
181	0xbd806a8c	-0.06270322
182	0x3e22dcc9	0.15904535
183	0xbd597242	-0.05308748
184	0x3dd32f6c	0.103117794
185	0xbda12fef	-0.07870471
186	0xbe14c1d6	-0.14527068
187	0x3ddadefa	0.10687061
188	0xbe0dd302	-0.13850024
189	0xbd9fff15	-0.07812325
190	0xbc0814d3	-0.008305746
191	0xbce937f6	-0.028469067
192	0x3d99c819	0.07508869
193	0x3d0dd9d2	0.034631558
194	0x3bb25230	0.0054419264
195	0xbd5efc9e	-0.054440133
196	0xbd8ba9fd	-0.06819532
197	0xbe11dd8f	-0.14244674
198	0x3dd72e0d	0.1050683
199	0xbe3577b5	-0.17721446
200	0xbdcc6c39	-0.09981579
201	0xbcaf9cf5	-0.021437148
202	0x3da097fa	0.07841487
203	0x3c866c89	0.016409175
204	0x3d09ed33	0.033673476
205	0x3bc0bcec	0.0058818962
206	0x3e6814a9	0.22664131
207	0x3dd9af73	0.106291674
208	0x3e2cc129	0.1687056
209	0x3db9769d	0.09055827
210	0x3da1805e	0.07885812
211	0xbd1ae729	-0.037818108
212	0x3d873daa	0.06603558
213	0x3cc3b9d8	0.023892328
214	0xbd158a92	-0.036509104
215	0xbd68cb6c	-0.056834623
216	0xbd8feab4	-0.07027188
217	0x3e3ac3ba	0.18238726
218	0xbc8d406c	-0.017242633
219	0xbdef0cf0	-0.116723895
220	0xbce15022	-0.02750403
221	0xbd10880b	-0.03528599
222	0xbd602f08	-0.054732352
223	0xbcb62bd4	-0.022237696
224	0x3ac53d96	0.0015048261
225	0xbdb95b04	-0.09050563
226	0xbdcbd70d	-0.09953127
227	0xbd7169f8	-0.05893895
228	0xbdd3bfe0	-0.103393316
229	0xbde5971b	-0.11210462
230	0xbd6eb1e4	-0.05827512
231	0xbcdf979b	-0.02729397
232	0xbe026b47	-0.12736236
233	0xbd8a2d0c	-0.06746873
234	0x3d2532b5	0.04033156
235	0xbd29e3e7	-0.04147711
236	0x3d16c625	0.03681006
237	0xbc8b2c24	-0.016988821
238	0x3cf42627	0.029803349
239	0x3c0c418e	0.008560551
240	0xbcd4c062	-0.025970642
241	0x3c48c0bf	0.0122529855
242	0xbd838e72	-0.06423654
243	0x3d60280e	0.0547257
244	0x3d1161c6	0.035493635
245	0xbd10d1ef	-0.03535646
246	0x3d47aa32	0.048746295
247	0x3cea72ec	0.028619252
248	0x3d626aba	0.055277564
249	0x3cc9f615	0.024653474
250	0x3cde83f4	0.02716253
251	0x3b427bc4	0.002967582
252	0xbd6efb55	-0.058345158
253	0xbd9b0b3b	-0.075705014
254	0xbdcaf8f4	-0.09910765
255	0x3dc2f891	0.095200665

weight f4 [200]
0	0x3f47beb1	0.78025347
1	0x3fa29b93	1.2703727
2	0x3f88e497	1.069476
3	0x3f868471	1.0509168
4	0x3f620d31	0.8830138
5	0x3f896491	1.0733815
6	0x3f9c65e5	1.2218596
7	0x3f537a93	0.8260891
8	0x3f5ef657	0.87094635
9	0x3f9df270	1.2339611
10	0x3f8f3cda	1.1190445
11	0x3f7501e5	0.95706016
12	0x3f76fe77	0.9648203
13	0x3f78062b	0.9688441
14	0x3f9364d3	1.1515144
15	0x3f549727	0.8304314
16	0x3f4d14d2	0.80109894
17	0x3f72be15	0.9482129
18	0x3f75080f	0.9571542
19	0x3f93ed85	1.155686
20	0x3f84fe8b	1.039018
21	0x3f6d6da9	0.92745453
22	0x3f5aebe1	0.8551617
23	0x3f6188c8	0.88099337
24	0x3f7f0d65	0.99629813
25	0x3f50bd15	0.81538516
26	0x3f5d98bf	0.865612
27	0x3f8106d8	1.0080214
28	0x3f857bfd	1.0428463
29	0x3fa44a74	1.2835221
30	0x3f441f73	0.7661049
31	0x3f64e5c8	0.8941312
32	0x3f8fc485	1.1231848
33	0x3fa08574	1.2540727
34	0x3f32c433	0.69830626
35	0x3fa4c8eb	1.2873815
36	0x3f649e8d	0.8930443
37	0x3f6a6818	0.91565084
38	0x3f905519	1.127597
39	0x3f89d2fc	1.0767512
40	0x3f6bb538	0.9207339
41	0x3fa0d791	1.2565786
42	0x3f9459d1	1.158991
43	0x3f7ad9ab	0.97988385
44	0x3f5c5bc8	0.8607755
45	0x3fa16df0	1.2611675
46	0x3f48f236	0.78494585
47	0x3f9e543d	1.2369457
48	0x3f978a68	1.1839113
49	0x3f48ab34	0.78386235
50	0x3f5b9dae	0.85787475
51	0x3f863133	1.0483764
52	0x3f8efdbd	1.1171185
53	0x3f82d87a	1.0222313
54	0x3f700efa	0.9377285
55	0x3f9ea924	1.2395368
56	0x3f670f4c	0.90257716
57	0x3f6f29ba	0.93423045
58	0x3f937552	1.1520178
59	0x3fa4d5cf	1.2877749
60	0x3f93f55d	1.1559254
61	0x3f9647ba	1.1740639
62	0x3f528b17	0.82243484
63	0x3f5ac685	0.85459167
64	0x3f6bdba1	0.92132
65	0x3f79e5f4	0.97616506
66	0x3fa75060	1.3071404
67	0x3f6d2178	0.92629194
68	0x3f868391	1.0508901
69	0x3f6d6bcd	0.92742616
70	0x3f5978fb	0.84950227
71	0x3f581df5	0.8442071
72	0x3f465943	0.7747995
73	0x3f9e4022	1.2363322
74	0x3f961d5d	1.1727711
75	0x3f66c315	0.9014142
76	0x3f82ae20	1.0209389
77	0x3f59c97d	0.8507307
78	0x3f8cf5b1	1.1012479
79	0x3f3ead49	0.7448316
80	0x3f42473a	0.75889933
81	0x3f5b7af9	0.85734516
82	0x3f90da21	1.1316568
83	0x3f763227	0.96170276
84	0x3f968e0e	1.1762102
85	0x3f556ff5	0.8337396
86	0x3f7d810c	0.99025035
87	0x3f3374d1	0.7010012
88	0x3f80038e	1.0001085
89	0x3f9be92f	1.2180537
90	0x3f839f68	1.0283022
91	0x3f9d059a	1.2267334
92	0x3f86c3b3	1.0528473
93	0x3f9f7f5d	1.2460743
94	0x3f5bfcb4	0.8593247
95	0x3f63a0b6	0.889171
96	0x3f6f5a4e	0.9349717
97	0x3f66560d	0.89975053
98	0x3f48ec45	0.7848552
99	0x3f88e4fe	1.0694883
100	0x3f570134	0.8398621
101	0x3f76fe71	0.96481997
102	0x3f9089bb	1.1292032
103	0x3f332331	0.6997557
104	0x3f8a9262	1.0825922
105	0x3f9fd5fc	1.2487178
106	0x3f5cb7f5	0.86218196
107	0x3f52501e	0.821535
108	0x3f729e7a	0.94773066
109	0x3f9bf28e	1.2183397
110	0x3f62c654	0.88583875
111	0x3f880274	1.0625749
112	0x3f8afcbf	1.0858382
113	0x3f76b3e1	0.96368223
114	0x3f3fa708	0.74864244
115	0x3f83a142	1.0283587
116	0x3fa5aced	1.2943398
117	0x3f9ccace	1.2249391
118	0x3f712bfc	0.9420774
119	0x3f8d16f2	1.1022627
120	0x3f7ef656	0.9959463
121	0x3f9d4389	1.2286235
122	0x3f4c8670	0.79892635
123	0x3f8ed9e7	1.1160249
124	0x3f838866	1.0276
125	0x3f8203ea	1.0157444
126	0x3f4b61f9	0.7944637
127	0x3f92b1d0	1.1460514
128	0x3f81f2e1	1.0152246
129	0x3f865a1d	1.049625
130	0x3f88ba4d	1.0681854
131	0x3f9940c4	1.197289
132	0x3fa01d6f	1.2508982
133	0x3f86b8a9	1.0525104
134	0x3f7a2e68	0.9772706
135	0x3f691344	0.9104502
136	0x3f99696d	1.1985298
137	0x3fa21f9f	1.26659
138	0x3f5c13ef	0.85967916
139	0x3f857178	1.0425253
140	0x3f4aa12b	0.7915217
141	0x3f897646	1.0739219
142	0x3f658936	0.8966249
143	0x3f6a475a	0.91515124
144	0x3f7a6823	0.9781515
145	0x3f602377	0.87554115
146	0x3f451572	0.7698585
147	0x3f7f4ece	0.9972962
148	0x3f814318	1.00986
149	0x3f50f16b	0.81618375
150	0x3f9c3d37	1.2206181
151	0x3fa11def	1.258726
152	0x3f5ecd38	0.8703189
153	0x3f3e3798	0.7430358
154	0x3f75d089	0.96021324
155	0x3fa30c6c	1.2738166
156	0x3f884ff7	1.0649403
157	0x3f7f02b8	0.99613523
158	0x3f7d4eac	0.9894817
159	0x3f6af977	0.91786903
160	0x3f6d61e8	0.9272752
161	0x3f80041c	1.0001254
162	0x3f5ebe2b	0.87008923
163	0x3fa28633	1.2697204
164	0x3f69cb33	0.9132568
165	0x3f64a1b0	0.89309216
166	0x3f513f94	0.8173764
167	0x3f9b04e3	1.2110866
168	0x3f9ab3f1	1.2086164
169	0x3f98652a	1.1905873
170	0x3f987a05	1.1912237
171	0x3f7fe244	0.9995463
172	0x3f58df60	0.84715843
173	0x3f937729	1.152074
174	0x3f81b0f4	1.0132127
175	0x3fa36167	1.27641
176	0x3f62a7cb	0.8853728
177	0x3f5b371f	0.85630983
178	0x3f5a1429	0.8518701
179	0x3f82931a	1.0201142
180	0x3f88c1ad	1.0684105
181	0x3f9286c8	1.1447382
182	0x3f887c06	1.0662849
183	0x3f7dec28	0.9918847
184	0x3f992cbd	1.1966778
185	0x3f88c296	1.0684383
186	0x3f8fb28e	1.1226366
187	0x3f7a0928	0.9767022
188	0x3fa2a8e0	1.2707787
189	0x3f88f684	1.0700231
190	0x3f6736d9	0.90318066
191	0x3f994c2f	1.1976374
192	0x3f61f4d1	0.88264185
193	0x3f70a204	0.93997216
194	0x3f711380	0.9417038
195	0x3f9d05d0	1.2267399
196	0x3f8375f2	1.0270369
197	0x3f8cd6ef	1.1003093
198	0x3f90255e	1.1261404
199	0x3f9dfb80	1.2342377

bias f4 [200]
0	0x3e439e17	0.19103275
1	0x3e14daaf	0.14536546
2	0xbe06b5f9	-0.13155355
3	0x3cb6a32c	0.022294603
4	0xbd9a3096	-0.07528798
5	0x3bbb292b	0.0057116947
6	0xbd79c424	-0.06097807
7	0x3d7a59c1	0.061120752
8	0xbe831e79	-0.25609186
9	0xbd775f31	-0.060393516
10	0xbdcce00e	-0.100036725
11	0xbd2dc385	-0.04242279
12	0x3cdb0a67	0.026738359
13	0x3d326f30	0.043563068
14	0xbd9d512a	-0.076814964
15	0xbd2476fb	-0.04015253
16	0x3c35b1f8	0.011089794
17	0x3d2a7713	0.041617464
18	0xbc923586	-0.017847788
19	0xbe147382	-0.14497188
20	0xbe34e625	-0.17665918
21	0x3dc8dfd2	0.09808315
22	0xbdb4125d	-0.08792565
23	0x3dc5ca58	0.09657735
24	0x3de9cb1f	0.114156954
25	0xbdedfe37	-0.11620753
26	0xbd49bbc5	-0.049251337
27	0xbcb1f1bb	-0.021721711
28	0x3cf078a6	0.029354405
29	0xbc24b174	-0.010052074
30	0x3cdaedc7	0.02672471
31	0xbd6cf83c	-0.057853922
32	0x3bbda5a4	0.005787568
33	0xbe1882e8	-0.14893687
34	0x3c08a218	0.008339427
35	0x3d8c20f5	0.068422236
36	0x3df4ead0	0.119588494
37	0x3dd01dac	0.101619095
38	0xbe8e4ddc	-0.27793777
39	0xbd4495f1	-0.047994558
40	0xbc876698	-0.016528413
41	0xbd3b6837	-0.045753684
42	0x3e2f0a19	0.17093696
43	0x3e0f5a33	0.13999252
44	0xbe0ba7f6	-0.13638291
45	0xbd9b1cf2	-0.0757388
46	0x3e01d408	0.1267854
47	0xbd46b7af	-0.048515018
48	0xbde81e46	-0.11333899
49	0x3da472ec	0.08029732
50	0x3dce1ab2	0.100636855
51	0xbd7320e2	-0.05935753
52	0xbc89c94b	-0.016819617
53	0x3d4871ea	0.048936762
54	0x3d43388c	0.04766135
55	0x3dd9b6ab	0.10630544
56	0xbd5e94ae	-0.05434101
57	0xbd4f28b5	-0.05057593
58	0xb903604e	-0.0001252901
59	0x3e0dd5c2	0.13851073
60	0xbdee0dd8	-0.11623734
61	0xbe08252f	-0.13295434
62	0x3dee0459	0.11621923
63	0xbd8b0542	-0.06788112
64	0xbe8bf940	-0.273386
65	0xbc9fecb3	-0.019522047
66	0x3cf6599a	0.030072022
67	0x3c6af4e3	0.014340612
68	0x3cf0718e	0.029351022
69	0xbd46689d	-0.04843961
70	0x3cf94e55	0.03043286
71	0x3e078ac6	0.13236532
72	0x3d4aa7bd	0.049476374
73	0xbde401d9	-0.11133165
74	0xbd536f34	-0.051619723
75	0xbe15dbb6	-0.14634594
76	0x3ce02e37	0.027365787
77	0xbe007f50	-0.12548566
78	0xbd0fdbdd	-0.035121787
79	0xbd336f91	-0.04380757
80	0xbdd85938	-0.10563892
81	0x3e192539	0.14955606
82	0xbd9f3175	-0.07773105
83	0xbd3d5949	-0.046227727
84	0xbdbe226e	-0.09283911
85	0xbd8c6322	-0.068548456
86	0x3c235504	0.009969
87	0xbcff6e54	-0.031180538
88	0x3d569ab8	0.052393645
89	0x3b1ef278	0.002425341
90	0x3d856685	0.06513695
91	0xbac6b339	-0.0015159614
92	0x38223ddd	3.8681424e-05
93	0xbe04c384	-0.12965208
94	0xbde23d42	-0.1104684
95	0x3d07abba	0.033122756
96	0xbd6ec62d	-0.058294464
97	0x3d86fab1	0.06590784
98	0xbe0dd5e7	-0.13851129
99	0xbc79c21d	-0.015244034
100	0xbd08ee07	-0.033430126
101	0x3d7dcf95	0.061965544
102	0x3d31777b	0.043326836
103	0x3d2990a0	0.04139769
104	0x3e0e3a9c	0.13889545
105	0xbdfdbfca	-0.123900965
106	0xbd24359f	-0.0400902
107	0xbc45f86c	-0.012083154
108	0xbd8bf05e	-0.06832956
109	0x3ced654c	0.028978966
110	0x3c6f0ab0	0.01458995
111	0x3d24caee	0.04023259
112	0xbc8fa81f	-0.017536221
113	0xbde17115	-0.11007897
114	0xbcb00b7c	-0.021489851
115	0xbe0c3908	-0.1369363
116	0x3d18ee56	0.03733667
117	0x3dfd42bb	0.123662435
118	0x3dd5cf14	0.10439888
119	0x3df5e8f3	0.12007322
120	0xbd41839c	-0.047244653
121	0xbe190090	-0.14941621
122	0xbe3873ab	-0.18012874
123	0xbd706ffe	-0.058700554
124	0x3d7f7acc	0.062372968
125	0x3d0e9443	0.034809362
126	0x3df93acc	0.12169418
127	0x3d2539df	0.040338393
128	0xbdd98a39	-0.10622067
129	0xbcbddf1c	-0.023177676
130	0x3d85f31d	0.06540511
131	0xbe14c514	-0.14528304
132	0x3e25098d	0.16116925
133	0x3c824498	0.015901849
134	0x3c9b037b	0.018922558
135	0x3ba7a2b7	0.0051158327
136	0x3d5f2045	0.054474134
137	0x3d328b8a	0.043590106
138	0xbd1c595e	-0.038171165
139	0x3d9551a1	0.0729096
140	0x3daadf14	0.0834333
141	0xbc3482fe	-0.011017559
142	0x3df0c6c1	0.11756659
143	0xbe17b6dd	-0.1481585
144	0x3e1af13e	0.15131089
145	0x3d55993e	0.052148096
146	0xbe1d89d2	-0.15384606
147	0xbc855d69	-0.016279893
148	0xbd943973	-0.0723752
149	0xbdcfd0d1	-0.101472504
150	0x3dae569b	0.085126124
151	0xbd56e75b	-0.05246673
152	0xbd3334a1	-0.043751363
153	0x3d5df391	0.05418736
154	0x3cdf9d91	0.027296813
155	0xbddbf126	-0.10739355
156	0xbc82177c	-0.015880339
157	0x3c1b6db2	0.009486603
158	0xbd8a503d	-0.067535855
159	0xbdf0b630	-0.117534995
160	0x3d47bd06	0.04876425
161	0xbd365231	-0.044511978
162	0xbcab409b	-0.02090483
163	0x3dce4d38	0.10073322
164	0xbc3fb4c5	-0.011700814
165	0xbd82b58a	-0.06382282
166	0x3e456096	0.19275126
167	0xbe1c6705	-0.15273674
168	0x3e0dc778	0.13845623
169	0x3e49441f	0.19654892
170	0xbe2c304e	-0.16815302
171	0x3cd2482a	0.025669176
172	0xbdd17a1a	-0.10228367
173	0xbcec6774	-0.028857924
174	0xbd6ec771	-0.05829567
175	0x3cb91ec5	0.02259768
176	0xbe303ab5	-0.17209895
177	0x3cec7422	0.02886397
178	0xbd6fbbbc	-0.058528647
179	0xbd5df023	-0.05418409
180	0xbd151339	-0.036395285
181	0x3c8c0f17	0.01709704
182	0x3df3d491	0.11905778
183	0xbe8b56c0	-0.27214622
184	0xbd580913	-0.05274303
185	0x3dad9b5e	0.084768996
186	0x3e3c7242	0.18402961
187	0xbda13bb9	-0.07872719
188	0xbe1872f2	-0.14887598
189	0xbe564797	-0.20925747
190	0x3ccab30a	0.024743576
191	0xbcb12711	-0.021625074
192	0x3e1498e4	0.14511448
193	0xbc92e5b0	-0.01793179
194	0x3d99b608	0.07505423
195	0xbdeaa518	-0.114572704
196	0xbd7d9904	-0.061913505
197	0x3d1fe05f	0.039032336
198	0xbdff50dc	-0.124665946
199	0x3c0545fa	0.0081343595

running_mean f4 [200]
0	0x3f9444ec	1.1583533
1	0x3f45d973	0.77284926
2	0x3f88019c	1.0625491
3	0x3ede82d9	0.43459204
4	0x3fa9dc29	1.3270313
5	0x40040d1f	2.0633008
6	0x4041c743	3.027787
7	0x3f904bfb	1.1273187
8	0x3ff639fa	1.9236443
9	0x40466404	3.0998545
10	0x4027b621	2.6204913
11	0x4031b938	2.7769299
12	0x3f997c57	1.199107
13	0x3ff6a067	1.9267701
14	0x400c639c	2.1935797
15	0x4012e2df	2.295097
16	0x3ff7f978	1.9373007
17	0x3f79b6f2	0.9754478
18	0x3fa28f4d	1.2699982
19	0x402d19d9	2.7047026
20	0x3feeb762	1.8649714
21	0x3fdfdcb2	1.7489226
22	0x3ed291e0	0.4112692
23	0x3f100ebe	0.56272495
24	0x3f8d8142	1.1055071
25	0x3fc01cc7	1.5008782
26	0x3ef76da7	0.48325846
27	0x3fdbbe99	1.7167541
28	0x3ff25a77	1.8933858
29	0x402c40c4	2.691453
30	0x3fba40bc	1.4551005
31	0x400036dc	2.0033484
32	0x3f83d03c	1.0297923
33	0x3fb98494	1.4493585
34	0x4009a393	2.1506088
35	0x3ff0b9c3	1.880669
36	0x3f3d1334	0.73857427
37	0x3efd3548	0.49454713
38	0x3ee8a4ce	0.45438236
39	0x3ff71a0b	1.9304823
40	0x3f49bbd3	0.7880222
41	0x402b1795	2.6733143
42	0x3fec9077	1.8481587
43	0x3fad0670	1.351759
44	0x3f3b5669	0.73178726
45	0x3fd161cb	1.6357969
46	0x3fd9646a	1.6983769
47	0x4049c934	3.1529055
48	0x40228702	2.5394902
49	0x40203567	2.5032594
50	0x3f2f5681	0.6849137
51	0x3fb556aa	1.4167073
52	0x4024575d	2.5678322
53	0x3f7b4154	0.9814656
54	0x402699e2	2.6031423
55	0x401b3159	2.424887
56	0x3fc3970c	1.5280471
57	0x3f688229	0.9082361
58	0x400faf94	2.2450914
59	0x3f9672e5	1.1753813
60	0x403770f5	2.8662694
61	0x3fcb8a7c	1.5901637
62	0x3e759661	0.23983146
63	0x400c2442	2.189713
64	0x3facbb2d	1.3494622
65	0x3fd10b3b	1.6331552
66	0x40078733	2.117627
67	0x3fdf988d	1.746843
68	0x400bf6db	2.1869419
69	0x3fd03319	1.6265594
70	0x3f96b5ec	1.1774268
71	0x3fd23482	1.6422274
72	0x4017d6d3	2.3724868
73	0x402eacac	2.729289
74	0x3ff2aec3	1.8959583
75	0x3f38698b	0.72036046
76	0x3f0a9b8f	0.54143614
77	0x3ffe8dc5	1.9887015
78	0x3fe01d37	1.7508916
79	0x3f7c9426	0.98663557
80	0x3f70ebf0	0.9411001
81	0x3f3760ac	0.71631885
82	0x3f216b4a	0.63054335
83	0x40285f54	2.6308184
84	0x40365a01	2.8492434
85	0x401877fd	2.3823235
86	0x3ff03e32	1.876898
87	0x40166ab4	2.3502626
88	0x3ed77c81	0.42087176
89	0x4018fe25	2.3905118
90	0x3f1806b7	0.59385246
91	0x3f54bb60	0.8309841
92	0x3fa43612	1.2829001
93	0x40004cca	2.0046868
94	0x400e5a77	2.2242715
95	0x3f92086c	1.140882
96	0x401ac242	2.4181066
97	0x40281708	2.6264057
98	0x4004c5ab	2.0745647
99	0x3fa5dbbd	1.2957684
100	0x3fb62ba5	1.4232069
101	0x3fd3aaed	1.6536537
102	0x3fd7a948	1.6848536
103	0x3ffa4d14	1.9554772
104	0x3fb7c1f4	1.4356065
105	0x3ff18c0d	1.8870865
106	0x3fdb8a23	1.7151531
107	0x3f931707	1.1491402
108	0x3fb50beb	1.4144262
109	0x3fdb2adc	1.7122455
110	0x400c8046	2.1953292
111	0x3fd94f13	1.6977257
112	0x400a44ac	2.1604414
113	0x3fdb158d	1.7115952
114	0x3f7f5c78	0.9975047
115	0x3f072c74	0.52802205
116	0x4006dfa9	2.1074011
117	0x3f0f7f14	0.5605328
118	0x4001831c	2.0236273
119	0x3fc7b106	1.5600898
120	0x402af716	2.671331
121	0x3fbe3d27	1.4862412
122	0x3fdb1448	1.7115564
123	0x3ff43dfd	1.9081417
124	0x3f82c47b	1.0216211
125	0x3ff124b5	1.8839327
126	0x3ff0bb07	1.8807076
127	0x3ff82ece	1.9389284
128	0x3fec8c0c	1.8480239
129	0x40233065	2.5498288
130	0x3f1b6f39	0.6071659
131	0x3f893cc2	1.0721667
132	0x40171065	2.3603756
133	0x3fc17ffd	1.5117184
134	0x40028d37	2.039869
135	0x3fee2f36	1.8608158
136	0x4004e860	2.076683
137	0x3fbce2e2	1.4756739
138	0x4017c9f3	2.371701
139	0x3fa5b2c3	1.2945179
140	0x3fc9bf56	1.5761516
141	0x3ec3e558	0.38260913
142	0x3f1d5e67	0.6147217
143	0x3fda6a61	1.7063714
144	0x3fd28dda	1.644954
145	0x40117bbc	2.2731771
146	0x3f9fbc09	1.2479259
147	0x3fb9ea35	1.4524599
148	0x3fbd0eb8	1.4770117
149	0x3ea419f4	0.3205105
150	0x3f740924	0.9532645
151	0x404165f7	3.0218484
152	0x401d01ab	2.4532268
153	0x3fbb7ee8	1.4648104
154	0x401eb1a2	2.4795918
155	0x4007a467	2.1194093
156	0x3f84b25d	1.0366932
157	0x40174347	2.3634813
158	0x3e852ece	0.26012272
159	0x3eb8ce6a	0.3609498
160	0x3f9c6e1e	1.2221105
161	0x3fb0f756	1.3825481
162	0x4004a6a5	2.0726712
163	0x3feb0e1b	1.836368
164	0x3fd61771	1.6725904
165	0x3e9b21d3	0.30299243
166	0x3f5a6160	0.8530483
167	0x3fcb5c3a	1.588752
168	0x40140438	2.3127575
169	0x3fb10436	1.382941
170	0x3f99877a	1.1994469
171	0x3fb00ebd	1.3754498
172	0x401e7b30	2.4762688
173	0x3ff43194	1.907763
174	0x3fcda27f	1.6065215
175	0x3fad6a41	1.3548051
176	0x3fabb709	1.3415233
177	0x40364810	2.8481483
178	0x3f9edd59	1.24113
179	0x3ff7bb31	1.9354001
180	0x4015a203	2.3380134
181	0x40300313	2.7501876
182	0x3f7588fd	0.9591215
183	0x3f9e22b4	1.235434
184	0x40416274	3.021634
185	0x3fdb5ef2	1.713835
186	0x3f9fbc9d	1.2479435
187	0x3fe2c045	1.7714926
188	0x400104a1	2.0159075
189	0x3f958021	1.1679727
190	0x40275b55	2.6149495
191	0x3fd5e9fa	1.6712029
192	0x4013b380	2.3078308
193	0x3ff58e5c	1.918407
194	0x3f8e22ca	1.1104367
195	0x40345595	2.8177235
196	0x3fd1ecea	1.6400425
197	0x4007c267	2.1212404
198	0x3fe69b96	1.8016231
199	0x400ed443	2.2317054

running_var f4 [200]
0	0x3ff30d0c	1.8988357
1	0x3f6c3826	0.92273176
2	0x3fd28662	1.644726
3	0x3f060f60	0.5236721
4	0x403d131a	2.9542909
5	0x4083c5de	4.1179037
6	0x40f20115	7.562632
7	0x401a06a2	2.4066548
8	0x40afc308	5.4925575
9	0x40ff2f7c	7.9745464
10	0x40b35b65	5.6049066
11	0x40ce7ad0	6.4524918
12	0x3fafaa18	1.3723783
13	0x40722152	3.7832837
14	0x40824a8d	4.0716004
15	0x40ebc51e	7.367812
16	0x40af74ad	5.4829926
17	0x3fb245e6	1.3927581
18	0x3fb75d46	1.432534
19	0x40c1440f	6.039558
20	0x40357fef	2.8359334
21	0x404543a5	3.0822537
22	0x3ec3f5e5	0.3827354
23	0x3f1abfce	0.6044892
24	0x4001fe0e	2.0311313
25	0x40747996	3.819921
26	0x3f308eb7	0.68967766
27	0x402a5951	2.6617014
28	0x409f4947	4.977695
29	0x40bc4667	5.883594
30	0x4089f287	4.3108554
31	0x40ba33dc	5.8188305
32	0x3fc79347	1.559182
33	0x3ff36492	1.9015067
34	0x40ca8060	6.328171
35	0x409ec1b0	4.9611435
36	0x3f876ef2	1.0580733
37	0x3ee601f3	0.44923362
38	0x3ea923da	0.33035165
39	0x40a7a0d2	5.2383814
40	0x3f897967	1.0740174
41	0x40bd320a	5.9123583
42	0x4099875c	4.7977734
43	0x401c0dfe	2.438354
44	0x3f744b28	0.9542718
45	0x4075b2f4	3.8390474
46	0x40249aa6	2.571939
47	0x4104db90	8.303604
48	0x40b04bc3	5.5092483
49	0x4110fded	9.061994
50	0x3f587805	0.84558135
51	0x3ff7a1db	1.9346269
52	0x40ae84dd	5.4537187
53	0x3f7b6ba2	0.9821111
54	0x4119fd22	9.6243
55	0x40a44ff9	5.1347623
56	0x405a0d2e	3.4070544
57	0x3fe7b584	1.8102269
58	0x40dd8110	6.9220047
59	0x40022701	2.0336306
60	0x40d5ff79	6.6874356
61	0x407ef325	3.9835904
62	0x3f33e000	0.7026367
63	0x40e00cb5	7.001551
64	0x402fc92f	2.7466543
65	0x40236a1e	2.5533519
66	0x40c7bebd	6.2420335
67	0x4034c4c9	2.8245108
68	0x40872dd0	4.2243423
69	0x407c33cf	3.9406621
70	0x3ffa49aa	1.955373
71	0x407fe132	3.9981198
72	0x40a0be24	5.0232105
73	0x40c5f485	6.1860986
74	0x403f2594	2.9866686
75	0x3f78b834	0.9715607
76	0x3f3fffb4	0.74999547
77	0x40bdef60	5.9354706
78	0x4034f972	2.827725
79	0x3fae9edc	1.364223
80	0x3fcba660	1.5910149
81	0x3f63ee82	0.8903581
82	0x3efab081	0.48962787
83	0x40bc96aa	5.8933916
84	0x40d7e0c7	6.7461886
85	0x410b7036	8.714895
86	0x40713a67	3.7691896
87	0x40a85f50	5.261635
88	0x3faf8475	1.3712298
89	0x4098db7a	4.7767916
90	0x3f110e15	0.5666211
91	0x3f87386d	1.0564095
92	0x3fd0451f	1.6271094
93	0x405f02f9	3.4845564
94	0x40e8d075	7.2754464
95	0x3ffa2398	1.9542112
96	0x4106633a	8.399225
97	0x40b8931d	5.767958
98	0x40cadcfd	6.339476
99	0x3fae18ac	1.3601279
100	0x4001719a	2.0225587
101	0x40194d39	2.3953383
102	0x40828cdd	4.079695
103	0x40ba21ac	5.8166103
104	0x3ffdc3b4	1.9825349
105	0x4042ed25	3.0457242
106	0x40425423	3.0363853
107	0x4007339d	2.1125252
108	0x3ff76bca	1.932977
109	0x408312f6	4.0960646
110	0x40d9fe7d	6.8123155
111	0x408206e2	4.06334
112	0x40ce412c	6.4454556
113	0x40892cbd	4.286711
114	0x3fdf7a1c	1.745914
115	0x3f0a89e5	0.5411666
116	0x40c5e79e	6.1845236
117	0x3eea3781	0.4574547
118	0x407bc3ea	3.9338326
119	0x405e84c4	3.4768534
120	0x40be0d8b	5.939153
121	0x3ffdd2cf	1.9829959
122	0x40937d8b	4.609075
123	0x409ec177	4.9611163
124	0x40034577	2.0511148
125	0x4045b680	3.089264
126	0x4042266f	3.0335958
127	0x40aaf7f9	5.34277
128	0x40357a32	2.8355832
129	0x40b13135	5.5372567
130	0x3ece47cb	0.4028915
131	0x3fa0dbea	1.2567112
132	0x40f540d4	7.6641636
133	0x40087c72	2.1325955
134	0x40712dcc	3.7684202
135	0x403bdb0e	2.935245
136	0x40c05e75	6.0115304
137	0x4046ae64	3.104394
138	0x41070a62	8.440035
139	0x3fd37e4e	1.652292
140	0x402598b4	2.5874453
141	0x3ec1278e	0.3772549
142	0x3f4afd4e	0.7929276
143	0x408f4136	4.4767103
144	0x4071663e	3.7718654
145	0x40f1e41d	7.559096
146	0x3fc8973a	1.5671151
147	0x40482fdb	3.1279209
148	0x4011fa5b	2.2809055
149	0x3f2412a2	0.6409093
150	0x3fb4783c	1.4099193
151	0x40f2a669	7.5828137
152	0x410e7b85	8.905156
153	0x401e268c	2.4711027
154	0x40a79e40	5.2380676
155	0x40723cde	3.784965
156	0x3fe11f70	1.7587719
157	0x409f3855	4.9756265
158	0x3e569a53	0.20957308
159	0x3ec6b699	0.38811186
160	0x3fc1ef58	1.5151167
161	0x400633d2	2.0969129
162	0x40d1ab08	6.552128
163	0x4096a38e	4.707465
164	0x401b9abb	2.431319
165	0x3e618071	0.22021653
166	0x3f885db3	1.0653595
167	0x4013ad22	2.3074422
168	0x409575da	4.670636
169	0x40304e0c	2.7547636
170	0x40161439	2.3449843
171	0x3fe3deb4	1.7802339
172	0x410e1fe1	8.882783
173	0x404f529d	3.2394173
174	0x406da3c9	3.7131217
175	0x4028ca27	2.6373384
176	0x402a2999	2.658789
177	0x4136d8ab	11.427897
178	0x3fc922ce	1.5713747
179	0x40513c59	3.2693083
180	0x4098e903	4.778444
181	0x4123e6a6	10.243811
182	0x3f8ef21c	1.1167636
183	0x3fb59713	1.4186729
184	0x40f478a6	7.6397276
185	0x408800fd	4.2501206
186	0x40134101	2.3008425
187	0x402b94dd	2.680961
188	0x40566802	3.3500981
189	0x3ff9e24e	1.9522188
190	0x4114f9fc	9.311031
191	0x4019aa16	2.4010062
192	0x409c4d4d	4.884436
193	0x405af1e0	3.4210129
194	0x3ff4d947	1.9128808
195	0x40d41b6e	6.6283484
196	0x4079789a	3.897986
197	0x40c7e857	6.247112
198	0x408e15f9	4.440182
199	0x40dceac6	6.903659

weight f4 [100, 200]
0	0x3db5208b	0.08844098
1	0x3e1348dd	0.14383264
2	0x3dff8d59	0.12478132
3	0x3d42e9fb	0.047586422
4	0x3d3feb19	0.046855066
5	0x3dc635f8	0.096782625
6	0xbdd4e6a9	-0.103955574
7	0x3d397d0d	0.045285273
8	0xbd977c41	-0.073967464
9	0xbe28b3e4	-0.16474873
10	0xbe221fb9	-0.15832414
11	0xbe04c62a	-0.12966219
12	0xbb12d742	-0.0022406136
13	0xbe0d89db	-0.13822119
14	0xbd7236d7	-0.05913433
15	0xbe01fa80	-0.12693214
16	0x3d2b96b7	0.04189178
17	0x3db2ee50	0.08736861
18	0x3cb37617	0.021906896
19	0xbdde7452	-0.1086203
20	0xbde9325e	-0.1138656
21	0x3cc0eb96	0.023549836
22	0xbd33b731	-0.043875877
23	0xbe098617	-0.13430057
24	0xbcf0615c	-0.0293433
25	0x3dee2dcf	0.11629831
26	0x3c7103cd	0.014710379
27	0xbdb3ec9a	-0.087853625
28	0x3e23cff1	0.15997292
29	0xbe2bf2e6	-0.16791877
30	0x3d8cf36b	0.06882366
31	0xbcb181ae	-0.021668281
32	0x3e29fcae	0.16600296
33	0xbd8d75c0	-0.06907225
34	0x3d2c527e	0.04207086
35	0x3d8253b8	0.06363624
36	0x3e04dbae	0.12974426
37	0x3d1dcf0f	0.038527545
38	0x3d853346	0.0650392
39	0xbcbf1b22	-0.023328368
40	0x3cb35fa0	0.021896183
41	0xbdac0fb6	-0.08401434
42	0x3e11a141	0.1422167
43	0xbd71fbb0	-0.05907792
44	0xbd94b305	-0.07260708
45	0x3e074826	0.13211116
46	0x3e073fb5	0.13207896
47	0xbe11689d	-0.14200063
48	0xbdae3cbe	-0.085076794
49	0xbd7652c2	-0.060137518
50	0xbdf1c8c2	-0.1180587
51	0xbdb5454c	-0.08851108
52	0xbe1a06d6	-0.1504167
53	0xbb905c58	-0.0044055395
54	0xbe014943	-0.12625603
55	0xbdb33dc9	-0.08752019
56	0xbd971f61	-0.07379032
57	0xbc650b8c	-0.013979804
58	0x3d68037a	0.05664394
59	0x3dfeab1f	0.124349825
60	0xbdde6cba	-0.10860582
61	0x3cc0e3a1	0.023546042
62	0x3d314978	0.043282956
63	0xbd4ac3d3	-0.04950316
64	0xbd91b490	-0.07114518
65	0xbda04660	-0.07825923
66	0x3de32859	0.1109168
67	0xbdc7871f	-0.09742569
68	0xbe008d26	-0.12553844
69	0x3c822e27	0.015891148
70	0xbe059712	-0.1304591
71	0xba2516be	-0.00062976393
72	0xbd172ff7	-0.036910977
73	0xbdc76f10	-0.0973798
74	0xbe01fe2f	-0.1269462
75	0xbd0d36f7	-0.034476247
76	0xbd6a4591	-0.05719525
77	0xbdcfeaa5	-0.10152177
78	0xbdc0d917	-0.094164066
79	0xbdf0e12f	-0.117617
80	0xbd882cac	-0.066491455
81	0x3e271dcf	0.16319965
82	0x39c4a465	0.00037506517
83	0xbd6c5737	-0.057700362
84	0xbdfe100f	-0.12405407
85	0xbe0acb0c	-0.13554019
86	0x3d46ec12	0.048564978
87	0xbca3dd8b	-0.0200031
88	0xbd69b3f4	-0.057056382
89	0xbe206185	-0.15662201
90	0xbb47285c	-0.0030389046
91	0x3dde251c	0.10846922
92	0x3d39aeb6	0.045332633
93	0xbdcd996c	-0.100390285
94	0xbd60f776	-0.054923497
95	0xbdb19672	-0.08671273
96	0xbdb1fca4	-0.086907655
97	0xbd275ff8	-0.040863007
98	0xbc98fd22	-0.01867539
99	0x3d873df5	0.06603614
100	0x3c4492c9	0.011997887
101	0xbd8235e2	-0.063579336
102	0x3c7b1fc5	0.015327399
103	0x3c729ada	0.014807427
104	0xbd9d842d	-0.07691226
105	0xbd8cbcf0	-0.068719745
106	0xbd6f6058	-0.05844149
107	0xbcad434e	-0.021150257
108	0xbb652d8c	-0.0034969775
109	0x3dd26e1e	0.102749094
110	0xbd247720	-0.04015267
111	0xbd78160b	-0.060567897
112	0xbc6ea4b4	-0.0145656355
113	0xbd7b3da6	-0.06133809
114	0x3e34289d	0.17593618
115	0x3d8db44e	0.06919156
116	0x3e0bbcce	0.13646242
117	0x3d8d5d62	0.06902577
118	0xbd758f60	-0.059951186
119	0x3d9eda79	0.07756514
120	0xbd12b848	-0.035820276
121	0xbdc45504	-0.09586528
122	0x3d0d4b88	0.03449586
123	0x3d5beb6a	0.053691305
124	0x3d32e31f	0.04367363
125	0x38f63772	0.000117405216
126	0xbdeeefb1	-0.11666811
127	0xbcbb23ea	-0.022844274
128	0xbda66f88	-0.08126742
129	0xbdbd3fab	-0.09240659
130	0xbba20160	-0.0049440116
131	0xbdd52b3f	-0.10408639
132	0x3da2f34d	0.07956562
133	0xbdb31304	-0.08743861
134	0xbded602b	-0.11590608
135	0xbd89aa3d	-0.067219235
136	0x3db3c6b5	0.08778135
137	0x3d84c1a4	0.064822465
138	0xbdfee0bd	-0.12445209
139	0x3c2ae6b8	0.010430984
140	0x3d566e51	0.0523513
141	0xbcbd0618	-0.023074195
142	0xbd43921c	-0.047746763
143	0xbcfabd96	-0.03060798
144	0xbd3e74fc	-0.046498284
145	0xbd45d373	-0.048297357
146	0xbcc9f4e5	-0.024652908
147	0xbe1f9dde	-0.15587565
148	0xbdfd4ee2	-0.12368561
149	0xbd774328	-0.06036678
150	0x3dbe9868	0.09306413
151	0xbdfbc673	-0.122937106
152	0xbcc505ff	-0.02405071
153	0xbdabd7c4	-0.083907634
154	0xbdbb6be5	-0.091514386
155	0xbe159f8c	-0.14611644
156	0xbc886400	-0.016649246
157	0xbd8da149	-0.06915528
158	0xbd34d2e8	-0.04414645
159	0xbd38733d	-0.045031775
160	0xbd8cd3e7	-0.06876355
161	0xbda6b309	-0.08139617
162	0xbdce4f11	-0.100736745
163	0x3d8fe32f	0.07025754
164	0xbcd699ce	-0.026196387
165	0xbcd499b8	-0.025952205
166	0x3d868ec2	0.06570198
167	0xbdf5dbef	-0.1200484
168	0xbd9e9c43	-0.07744648
169	0x3e04c541	0.12965871
170	0x3d826d22	0.06368472
171	0x3d41f7cf	0.04735547
172	0xbda6b47e	-0.08139895
173	0xbe207e16	-0.15673098
174	0x3d4fbbf9	0.050716374
175	0x3dda473d	0.10658119
176	0xbc2ed432	-0.0106707085
177	0xbe0789a3	-0.13236098
178	0xbe084360	-0.13306952
179	0xbd42c739	-0.047553275
180	0xbd5fc255	-0.05462869
181	0x3cc494b1	0.023996683
182	0xbde56761	-0.112013586
183	0x3d2fbc39	0.042904112
184	0xbdb2daeb	-0.087331615
185	0xbd1c60b2	-0.038178153
186	0x3d5e6940	0.054299593
187	0xbdd48fce	-0.10378991
188	0xbddd5641	-0.10807467
189	0x3db9ef21	0.09078813
190	0x3c35ba8b	0.011091839
191	0x3d2126ba	0.039343573
192	0xbc45e599	-0.012078666
193	0xbd93fd6c	-0.07226071
194	0x3d999503	0.07499125
195	0xbe0826ee	-0.132961
196	0xbd73569c	-0.05940877
197	0x3ccc5d5f	0.024946867
198	0x3d57a759	0.05264983
199	0x3de2f2ea	0.110814884
200	0xbcadde92	-0.021224294
201	0xbccd6a1c	-0.025075011
202	0xbde16197	-0.11004942
203	0xbd8cca2c	-0.06874499
204	0xbd904062	-0.0704353
205	0x3bfa6b87	0.007642213
206	0x3d5187d9	0.051154945
207	0xbd5debe9	-0.05418006
208	0xbcc4727e	-0.023980375
209	0x3d783324	0.060595647
210	0xbd3da24e	-0.046297364
211	0xbd7b23b6	-0.061313353
212	0xbdabb952	-0.083849564
213	0x3cb404f4	0.021975018
214	0x3d93a857	0.07209843
215	0xbc0f92ca	-0.008763025
216	0xbd2c5a4b	-0.042078298
217	0xbdc7b738	-0.09751743
218	0xbdbedab9	-0.09319062
219	0xbcb35f10	-0.021895915
220	0xbdc1087f	-0.094254486
221	0xbcb8ea34	-0.022572614
222	0x3d0bc2e0	0.034121394
223	0x3cb3bf36	0.021941762
224	0xbd5041b6	-0.050843917
225	0x3d460352	0.04834301
226	0xbb847e71	-0.0040433933
227	0x3d8899e8	0.0666998
228	0xbd117ddc	-0.03552042
229	0x3dcfb3a3	0.10141685
230	0xbc1d5fa7	-0.009605325
231	0x3d191f33	0.03738327
232	0xbdac3879	-0.08409209
233	0x3d8fa728	0.070143044
234	0xbd0f4cce	-0.034985356
235	0xbd4cd69e	-0.050009362
236	0xbd83dd99	-0.06438751
237	0x3da939ff	0.08263015
238	0xbd783578	-0.060597867
239	0xbdf6048c	-0.12012586
240	0xbdf3c84f	-0.1190344
241	0x3d9544ab	0.07288488
242	0xbd1f60f6	-0.03891083
243	0x3d0ba2be	0.03409075
244	0x3d4d14f5	0.050068814
245	0xbdae5a35	-0.085132994
246	0x3b22add2	0.0024822843
247	0x3d0026be	0.031286947
248	0xbaccd407	-0.0015627154
249	0x3cd22d70	0.025656432
250	0xbd3b9b4a	-0.045802392
251	0x3db8ed4f	0.09029638
252	0x3c8ecc8d	0.017431522
253	0xbddebef4	-0.10876265
254	0x3d6f87e0	0.05847919
255	0x3d433229	0.04765526

weight f4 [100]
0	0x3f70b7e6	0.94030607
1	0x3f8d5fbd	1.1044842
2	0x3f934aba	1.150718
3	0x3f832796	1.0246456
4	0x3f8f4248	1.1192102
5	0x3f8a52bf	1.0806502
6	0x3f8308a2	1.023701
7	0x3f844451	1.0333349
8	0x3f5dd6a4	0.8665564
9	0x3f9e2df3	1.2357773
10	0x3f6921a6	0.9106697
11	0x3f89d98b	1.0769514
12	0x3f88005d	1.0625111
13	0x3f9042e8	1.1270418
14	0x3f93fd11	1.1561605
15	0x3f69bad0	0.9130068
16	0x3f9e1ff2	1.2353499
17	0x3f916666	1.1359375
18	0x3f840f7c	1.0317225
19	0x3f92e224	1.1475263
20	0x3f6ffe13	0.9374706
21	0x3f8204de	1.0157735
22	0x3f992977	1.1965779
23	0x3f96a2ba	1.176841
24	0x3f7abb6d	0.9794224
25	0x3fa85b2e	1.3152826
26	0x3f615c16	0.88031137
27	0x3f8c6c29	1.0970508
28	0x3f7d4aac	0.98942065
29	0x3fa82528	1.3136339
30	0x3fa7c67b	1.3107446
31	0x3f937f35	1.1523196
32	0x3fae114b	1.3599027
33	0x3f903cb0	1.126852
34	0x3fa99f5d	1.3251759
35	0x3f7fb726	0.9988884
36	0x3f8a9cf1	1.0829145
37	0x3f80519c	1.0024905
38	0x3fabd8ca	1.3425534
39	0x3f86fb92	1.0545523
40	0x3f7e88d9	0.9942756
41	0x3f9157bb	1.1354898
42	0x3fa23819	1.267337
43	0x3f8e63bb	1.1124185
44	0x3f88c710	1.0685749
45	0x3f8d1757	1.1022748
46	0x3f7ba577	0.98299354
47	0x3f908e48	1.1293421
48	0x3f5fbee5	0.87400657
49	0x3f9d3fa1	1.2285043
50	0x3fa37f61	1.2773248
51	0x3f89b2c2	1.0757678
52	0x3f99cc59	1.2015487
53	0x3f93f821	1.1560098
54	0x3f9fb08e	1.2475755
55	0x3f849fab	1.0361227
56	0x3fc20d3d	1.516029
57	0x3f9b88e2	1.2151148
58	0x3f89e642	1.0773394
59	0x3f905594	1.1276116
60	0x3f9f2b51	1.2435094
61	0x3f808c80	1.0042877
62	0x3f68dbf2	0.9096061
63	0x3f8320bf	1.0244368
64	0x3f7b53a5	0.98174506
65	0x3f8fa67a	1.122268
66	0x3f994602	1.197449
67	0x3f8e173b	1.1100839
68	0x3f5ff6d9	0.87486035
69	0x3fbb87d8	1.4650831
70	0x3f8aa613	1.0831932
71	0x3f89e525	1.0773054
72	0x3f9d772e	1.2301996
73	0x3f9f2edd	1.2436177
74	0x3f858b03	1.0433048
75	0x3fb2ab0d	1.395845
76	0x3fc20c6e	1.5160043
77	0x3f7c2676	0.98496187
78	0x3f556d18	0.8336959
79	0x3f9b0b03	1.2112736
80	0x3f9f68e9	1.2453891
81	0x3f88ac02	1.0677493
82	0x3f8591b7	1.0435094
83	0x3fa68e30	1.3012142
84	0x3f7b3323	0.98124903
85	0x3fa5b7e5	1.2946745
86	0x3f860eb6	1.047324
87	0x3fbf60e9	1.495145
88	0x3f84b221	1.0366861
89	0x3fb56fb4	1.4174714
90	0x3f978414	1.1837182
91	0x3f7fe638	0.9996066
92	0x3f84f451	1.038706
93	0x3f9b3543	1.2125629
94	0x3f876f1e	1.0580785
95	0x3fa90c10	1.3206806
96	0x3f99b7cb	1.2009214
97	0x3f8a5b3c	1.0809093
98	0x3f60083d	0.8751257
99	0x3f5efed6	0.871076
